{"format": "layers-model", "generatedBy": "keras v3.8.0", "convertedBy": "TensorFlow.js Converter v4.22.0", "modelTopology": {"keras_version": "3.8.0", "backend": "tensorflow", "model_config": {"class_name": "Sequential", "config": {"name": "sequential_4", "trainable": true, "dtype": {"module": "keras", "class_name": "DTypePolicy", "config": {"name": "float32"}, "registered_name": null}, "layers": [{"class_name": "InputLayer", "config": {"batch_shape": [null, 150, 150, 3], "dtype": "float32", "sparse": false, "name": "input_layer_9"}}, {"class_name": "Functional", "config": {"name": "inception_v3", "trainable": false, "layers": [{"class_name": "InputLayer", "config": {"batch_shape": [null, 150, 150, 3], "dtype": "float32", "sparse": false, "name": "input_layer_8"}, "name": "input_layer_8", "inbound_nodes": []}, {"class_name": "Conv2D", "config": {"name": "conv2d_388", "trainable": false, "dtype": {"module": "keras", "class_name": "DTypePolicy", "config": {"name": "float32"}, "registered_name": null}, "filters": 32, "kernel_size": [3, 3], "strides": [2, 2], "padding": "valid", "data_format": "channels_last", "dilation_rate": [1, 1], "groups": 1, "activation": "linear", "use_bias": false, "kernel_initializer": {"module": "keras.initializers", "class_name": "GlorotUniform", "config": {"seed": null}, "registered_name": null}, "bias_initializer": {"module": "keras.initializers", "class_name": "Zeros", "config": {}, "registered_name": null}, "kernel_regularizer": null, "bias_regularizer": null, "activity_regularizer": null, "kernel_constraint": null, "bias_constraint": null}, "name": "conv2d_388", "inbound_nodes": [{"args": [{"class_name": "__keras_tensor__", "config": {"shape": [null, 150, 150, 3], "dtype": "float32", "keras_history": ["input_layer_8", 0, 0]}}], "kwargs": {}}]}, {"class_name": "BatchNormalization", "config": {"name": "batch_normalization_388", "trainable": false, "dtype": {"module": "keras", "class_name": "DTypePolicy", "config": {"name": "float32"}, "registered_name": null}, "axis": 3, "momentum": 0.99, "epsilon": 0.001, "center": true, "scale": false, "beta_initializer": {"module": "keras.initializers", "class_name": "Zeros", "config": {}, "registered_name": null}, "gamma_initializer": {"module": "keras.initializers", "class_name": "Ones", "config": {}, "registered_name": null}, "moving_mean_initializer": {"module": "keras.initializers", "class_name": "Zeros", "config": {}, "registered_name": null}, "moving_variance_initializer": {"module": "keras.initializers", "class_name": "Ones", "config": {}, "registered_name": null}, "beta_regularizer": null, "gamma_regularizer": null, "beta_constraint": null, "gamma_constraint": null, "synchronized": false}, "name": "batch_normalization_388", "inbound_nodes": [{"args": [{"class_name": "__keras_tensor__", "config": {"shape": [null, 74, 74, 32], "dtype": "float32", "keras_history": ["conv2d_388", 0, 0]}}], "kwargs": {"mask": null}}]}, {"class_name": "Activation", "config": {"name": "activation_376", "trainable": false, "dtype": {"module": "keras", "class_name": "DTypePolicy", "config": {"name": "float32"}, "registered_name": null}, "activation": "relu"}, "name": "activation_376", "inbound_nodes": [{"args": [{"class_name": "__keras_tensor__", "config": {"shape": [null, 74, 74, 32], "dtype": "float32", "keras_history": ["batch_normalization_388", 0, 0]}}], "kwargs": {}}]}, {"class_name": "Conv2D", "config": {"name": "conv2d_389", "trainable": false, "dtype": {"module": "keras", "class_name": "DTypePolicy", "config": {"name": "float32"}, "registered_name": null}, "filters": 32, "kernel_size": [3, 3], "strides": [1, 1], "padding": "valid", "data_format": "channels_last", "dilation_rate": [1, 1], "groups": 1, "activation": "linear", "use_bias": false, "kernel_initializer": {"module": "keras.initializers", "class_name": "GlorotUniform", "config": {"seed": null}, "registered_name": null}, "bias_initializer": {"module": "keras.initializers", "class_name": "Zeros", "config": {}, "registered_name": null}, "kernel_regularizer": null, "bias_regularizer": null, "activity_regularizer": null, "kernel_constraint": null, "bias_constraint": null}, "name": "conv2d_389", "inbound_nodes": [{"args": [{"class_name": "__keras_tensor__", "config": {"shape": [null, 74, 74, 32], "dtype": "float32", "keras_history": ["activation_376", 0, 0]}}], "kwargs": {}}]}, {"class_name": "BatchNormalization", "config": {"name": "batch_normalization_389", "trainable": false, "dtype": {"module": "keras", "class_name": "DTypePolicy", "config": {"name": "float32"}, "registered_name": null}, "axis": 3, "momentum": 0.99, "epsilon": 0.001, "center": true, "scale": false, "beta_initializer": {"module": "keras.initializers", "class_name": "Zeros", "config": {}, "registered_name": null}, "gamma_initializer": {"module": "keras.initializers", "class_name": "Ones", "config": {}, "registered_name": null}, "moving_mean_initializer": {"module": "keras.initializers", "class_name": "Zeros", "config": {}, "registered_name": null}, "moving_variance_initializer": {"module": "keras.initializers", "class_name": "Ones", "config": {}, "registered_name": null}, "beta_regularizer": null, "gamma_regularizer": null, "beta_constraint": null, "gamma_constraint": null, "synchronized": false}, "name": "batch_normalization_389", "inbound_nodes": [{"args": [{"class_name": "__keras_tensor__", "config": {"shape": [null, 72, 72, 32], "dtype": "float32", "keras_history": ["conv2d_389", 0, 0]}}], "kwargs": {"mask": null}}]}, {"class_name": "Activation", "config": {"name": "activation_377", "trainable": false, "dtype": {"module": "keras", "class_name": "DTypePolicy", "config": {"name": "float32"}, "registered_name": null}, "activation": "relu"}, "name": "activation_377", "inbound_nodes": [{"args": [{"class_name": "__keras_tensor__", "config": {"shape": [null, 72, 72, 32], "dtype": "float32", "keras_history": ["batch_normalization_389", 0, 0]}}], "kwargs": {}}]}, {"class_name": "Conv2D", "config": {"name": "conv2d_390", "trainable": false, "dtype": {"module": "keras", "class_name": "DTypePolicy", "config": {"name": "float32"}, "registered_name": null}, "filters": 64, "kernel_size": [3, 3], "strides": [1, 1], "padding": "same", "data_format": "channels_last", "dilation_rate": [1, 1], "groups": 1, "activation": "linear", "use_bias": false, "kernel_initializer": {"module": "keras.initializers", "class_name": "GlorotUniform", "config": {"seed": null}, "registered_name": null}, "bias_initializer": {"module": "keras.initializers", "class_name": "Zeros", "config": {}, "registered_name": null}, "kernel_regularizer": null, "bias_regularizer": null, "activity_regularizer": null, "kernel_constraint": null, "bias_constraint": null}, "name": "conv2d_390", "inbound_nodes": [{"args": [{"class_name": "__keras_tensor__", "config": {"shape": [null, 72, 72, 32], "dtype": "float32", "keras_history": ["activation_377", 0, 0]}}], "kwargs": {}}]}, {"class_name": "BatchNormalization", "config": {"name": "batch_normalization_390", "trainable": false, "dtype": {"module": "keras", "class_name": "DTypePolicy", "config": {"name": "float32"}, "registered_name": null}, "axis": 3, "momentum": 0.99, "epsilon": 0.001, "center": true, "scale": false, "beta_initializer": {"module": "keras.initializers", "class_name": "Zeros", "config": {}, "registered_name": null}, "gamma_initializer": {"module": "keras.initializers", "class_name": "Ones", "config": {}, "registered_name": null}, "moving_mean_initializer": {"module": "keras.initializers", "class_name": "Zeros", "config": {}, "registered_name": null}, "moving_variance_initializer": {"module": "keras.initializers", "class_name": "Ones", "config": {}, "registered_name": null}, "beta_regularizer": null, "gamma_regularizer": null, "beta_constraint": null, "gamma_constraint": null, "synchronized": false}, "name": "batch_normalization_390", "inbound_nodes": [{"args": [{"class_name": "__keras_tensor__", "config": {"shape": [null, 72, 72, 64], "dtype": "float32", "keras_history": ["conv2d_390", 0, 0]}}], "kwargs": {"mask": null}}]}, {"class_name": "Activation", "config": {"name": "activation_378", "trainable": false, "dtype": {"module": "keras", "class_name": "DTypePolicy", "config": {"name": "float32"}, "registered_name": null}, "activation": "relu"}, "name": "activation_378", "inbound_nodes": [{"args": [{"class_name": "__keras_tensor__", "config": {"shape": [null, 72, 72, 64], "dtype": "float32", "keras_history": ["batch_normalization_390", 0, 0]}}], "kwargs": {}}]}, {"class_name": "MaxPooling2D", "config": {"name": "max_pooling2d_20", "trainable": false, "dtype": {"module": "keras", "class_name": "DTypePolicy", "config": {"name": "float32"}, "registered_name": null}, "pool_size": [3, 3], "padding": "valid", "strides": [2, 2], "data_format": "channels_last"}, "name": "max_pooling2d_20", "inbound_nodes": [{"args": [{"class_name": "__keras_tensor__", "config": {"shape": [null, 72, 72, 64], "dtype": "float32", "keras_history": ["activation_378", 0, 0]}}], "kwargs": {}}]}, {"class_name": "Conv2D", "config": {"name": "conv2d_391", "trainable": false, "dtype": {"module": "keras", "class_name": "DTypePolicy", "config": {"name": "float32"}, "registered_name": null}, "filters": 80, "kernel_size": [1, 1], "strides": [1, 1], "padding": "valid", "data_format": "channels_last", "dilation_rate": [1, 1], "groups": 1, "activation": "linear", "use_bias": false, "kernel_initializer": {"module": "keras.initializers", "class_name": "GlorotUniform", "config": {"seed": null}, "registered_name": null}, "bias_initializer": {"module": "keras.initializers", "class_name": "Zeros", "config": {}, "registered_name": null}, "kernel_regularizer": null, "bias_regularizer": null, "activity_regularizer": null, "kernel_constraint": null, "bias_constraint": null}, "name": "conv2d_391", "inbound_nodes": [{"args": [{"class_name": "__keras_tensor__", "config": {"shape": [null, 35, 35, 64], "dtype": "float32", "keras_history": ["max_pooling2d_20", 0, 0]}}], "kwargs": {}}]}, {"class_name": "BatchNormalization", "config": {"name": "batch_normalization_391", "trainable": false, "dtype": {"module": "keras", "class_name": "DTypePolicy", "config": {"name": "float32"}, "registered_name": null}, "axis": 3, "momentum": 0.99, "epsilon": 0.001, "center": true, "scale": false, "beta_initializer": {"module": "keras.initializers", "class_name": "Zeros", "config": {}, "registered_name": null}, "gamma_initializer": {"module": "keras.initializers", "class_name": "Ones", "config": {}, "registered_name": null}, "moving_mean_initializer": {"module": "keras.initializers", "class_name": "Zeros", "config": {}, "registered_name": null}, "moving_variance_initializer": {"module": "keras.initializers", "class_name": "Ones", "config": {}, "registered_name": null}, "beta_regularizer": null, "gamma_regularizer": null, "beta_constraint": null, "gamma_constraint": null, "synchronized": false}, "name": "batch_normalization_391", "inbound_nodes": [{"args": [{"class_name": "__keras_tensor__", "config": {"shape": [null, 35, 35, 80], "dtype": "float32", "keras_history": ["conv2d_391", 0, 0]}}], "kwargs": {"mask": null}}]}, {"class_name": "Activation", "config": {"name": "activation_379", "trainable": false, "dtype": {"module": "keras", "class_name": "DTypePolicy", "config": {"name": "float32"}, "registered_name": null}, "activation": "relu"}, "name": "activation_379", "inbound_nodes": [{"args": [{"class_name": "__keras_tensor__", "config": {"shape": [null, 35, 35, 80], "dtype": "float32", "keras_history": ["batch_normalization_391", 0, 0]}}], "kwargs": {}}]}, {"class_name": "Conv2D", "config": {"name": "conv2d_392", "trainable": false, "dtype": {"module": "keras", "class_name": "DTypePolicy", "config": {"name": "float32"}, "registered_name": null}, "filters": 192, "kernel_size": [3, 3], "strides": [1, 1], "padding": "valid", "data_format": "channels_last", "dilation_rate": [1, 1], "groups": 1, "activation": "linear", "use_bias": false, "kernel_initializer": {"module": "keras.initializers", "class_name": "GlorotUniform", "config": {"seed": null}, "registered_name": null}, "bias_initializer": {"module": "keras.initializers", "class_name": "Zeros", "config": {}, "registered_name": null}, "kernel_regularizer": null, "bias_regularizer": null, "activity_regularizer": null, "kernel_constraint": null, "bias_constraint": null}, "name": "conv2d_392", "inbound_nodes": [{"args": [{"class_name": "__keras_tensor__", "config": {"shape": [null, 35, 35, 80], "dtype": "float32", "keras_history": ["activation_379", 0, 0]}}], "kwargs": {}}]}, {"class_name": "BatchNormalization", "config": {"name": "batch_normalization_392", "trainable": false, "dtype": {"module": "keras", "class_name": "DTypePolicy", "config": {"name": "float32"}, "registered_name": null}, "axis": 3, "momentum": 0.99, "epsilon": 0.001, "center": true, "scale": false, "beta_initializer": {"module": "keras.initializers", "class_name": "Zeros", "config": {}, "registered_name": null}, "gamma_initializer": {"module": "keras.initializers", "class_name": "Ones", "config": {}, "registered_name": null}, "moving_mean_initializer": {"module": "keras.initializers", "class_name": "Zeros", "config": {}, "registered_name": null}, "moving_variance_initializer": {"module": "keras.initializers", "class_name": "Ones", "config": {}, "registered_name": null}, "beta_regularizer": null, "gamma_regularizer": null, "beta_constraint": null, "gamma_constraint": null, "synchronized": false}, "name": "batch_normalization_392", "inbound_nodes": [{"args": [{"class_name": "__keras_tensor__", "config": {"shape": [null, 33, 33, 192], "dtype": "float32", "keras_history": ["conv2d_392", 0, 0]}}], "kwargs": {"mask": null}}]}, {"class_name": "Activation", "config": {"name": "activation_380", "trainable": false, "dtype": {"module": "keras", "class_name": "DTypePolicy", "config": {"name": "float32"}, "registered_name": null}, "activation": "relu"}, "name": "activation_380", "inbound_nodes": [{"args": [{"class_name": "__keras_tensor__", "config": {"shape": [null, 33, 33, 192], "dtype": "float32", "keras_history": ["batch_normalization_392", 0, 0]}}], "kwargs": {}}]}, {"class_name": "MaxPooling2D", "config": {"name": "max_pooling2d_21", "trainable": false, "dtype": {"module": "keras", "class_name": "DTypePolicy", "config": {"name": "float32"}, "registered_name": null}, "pool_size": [3, 3], "padding": "valid", "strides": [2, 2], "data_format": "channels_last"}, "name": "max_pooling2d_21", "inbound_nodes": [{"args": [{"class_name": "__keras_tensor__", "config": {"shape": [null, 33, 33, 192], "dtype": "float32", "keras_history": ["activation_380", 0, 0]}}], "kwargs": {}}]}, {"class_name": "Conv2D", "config": {"name": "conv2d_396", "trainable": false, "dtype": {"module": "keras", "class_name": "DTypePolicy", "config": {"name": "float32"}, "registered_name": null}, "filters": 64, "kernel_size": [1, 1], "strides": [1, 1], "padding": "same", "data_format": "channels_last", "dilation_rate": [1, 1], "groups": 1, "activation": "linear", "use_bias": false, "kernel_initializer": {"module": "keras.initializers", "class_name": "GlorotUniform", "config": {"seed": null}, "registered_name": null}, "bias_initializer": {"module": "keras.initializers", "class_name": "Zeros", "config": {}, "registered_name": null}, "kernel_regularizer": null, "bias_regularizer": null, "activity_regularizer": null, "kernel_constraint": null, "bias_constraint": null}, "name": "conv2d_396", "inbound_nodes": [{"args": [{"class_name": "__keras_tensor__", "config": {"shape": [null, 16, 16, 192], "dtype": "float32", "keras_history": ["max_pooling2d_21", 0, 0]}}], "kwargs": {}}]}, {"class_name": "BatchNormalization", "config": {"name": "batch_normalization_396", "trainable": false, "dtype": {"module": "keras", "class_name": "DTypePolicy", "config": {"name": "float32"}, "registered_name": null}, "axis": 3, "momentum": 0.99, "epsilon": 0.001, "center": true, "scale": false, "beta_initializer": {"module": "keras.initializers", "class_name": "Zeros", "config": {}, "registered_name": null}, "gamma_initializer": {"module": "keras.initializers", "class_name": "Ones", "config": {}, "registered_name": null}, "moving_mean_initializer": {"module": "keras.initializers", "class_name": "Zeros", "config": {}, "registered_name": null}, "moving_variance_initializer": {"module": "keras.initializers", "class_name": "Ones", "config": {}, "registered_name": null}, "beta_regularizer": null, "gamma_regularizer": null, "beta_constraint": null, "gamma_constraint": null, "synchronized": false}, "name": "batch_normalization_396", "inbound_nodes": [{"args": [{"class_name": "__keras_tensor__", "config": {"shape": [null, 16, 16, 64], "dtype": "float32", "keras_history": ["conv2d_396", 0, 0]}}], "kwargs": {"mask": null}}]}, {"class_name": "Activation", "config": {"name": "activation_384", "trainable": false, "dtype": {"module": "keras", "class_name": "DTypePolicy", "config": {"name": "float32"}, "registered_name": null}, "activation": "relu"}, "name": "activation_384", "inbound_nodes": [{"args": [{"class_name": "__keras_tensor__", "config": {"shape": [null, 16, 16, 64], "dtype": "float32", "keras_history": ["batch_normalization_396", 0, 0]}}], "kwargs": {}}]}, {"class_name": "Conv2D", "config": {"name": "conv2d_394", "trainable": false, "dtype": {"module": "keras", "class_name": "DTypePolicy", "config": {"name": "float32"}, "registered_name": null}, "filters": 48, "kernel_size": [1, 1], "strides": [1, 1], "padding": "same", "data_format": "channels_last", "dilation_rate": [1, 1], "groups": 1, "activation": "linear", "use_bias": false, "kernel_initializer": {"module": "keras.initializers", "class_name": "GlorotUniform", "config": {"seed": null}, "registered_name": null}, "bias_initializer": {"module": "keras.initializers", "class_name": "Zeros", "config": {}, "registered_name": null}, "kernel_regularizer": null, "bias_regularizer": null, "activity_regularizer": null, "kernel_constraint": null, "bias_constraint": null}, "name": "conv2d_394", "inbound_nodes": [{"args": [{"class_name": "__keras_tensor__", "config": {"shape": [null, 16, 16, 192], "dtype": "float32", "keras_history": ["max_pooling2d_21", 0, 0]}}], "kwargs": {}}]}, {"class_name": "Conv2D", "config": {"name": "conv2d_397", "trainable": false, "dtype": {"module": "keras", "class_name": "DTypePolicy", "config": {"name": "float32"}, "registered_name": null}, "filters": 96, "kernel_size": [3, 3], "strides": [1, 1], "padding": "same", "data_format": "channels_last", "dilation_rate": [1, 1], "groups": 1, "activation": "linear", "use_bias": false, "kernel_initializer": {"module": "keras.initializers", "class_name": "GlorotUniform", "config": {"seed": null}, "registered_name": null}, "bias_initializer": {"module": "keras.initializers", "class_name": "Zeros", "config": {}, "registered_name": null}, "kernel_regularizer": null, "bias_regularizer": null, "activity_regularizer": null, "kernel_constraint": null, "bias_constraint": null}, "name": "conv2d_397", "inbound_nodes": [{"args": [{"class_name": "__keras_tensor__", "config": {"shape": [null, 16, 16, 64], "dtype": "float32", "keras_history": ["activation_384", 0, 0]}}], "kwargs": {}}]}, {"class_name": "BatchNormalization", "config": {"name": "batch_normalization_394", "trainable": false, "dtype": {"module": "keras", "class_name": "DTypePolicy", "config": {"name": "float32"}, "registered_name": null}, "axis": 3, "momentum": 0.99, "epsilon": 0.001, "center": true, "scale": false, "beta_initializer": {"module": "keras.initializers", "class_name": "Zeros", "config": {}, "registered_name": null}, "gamma_initializer": {"module": "keras.initializers", "class_name": "Ones", "config": {}, "registered_name": null}, "moving_mean_initializer": {"module": "keras.initializers", "class_name": "Zeros", "config": {}, "registered_name": null}, "moving_variance_initializer": {"module": "keras.initializers", "class_name": "Ones", "config": {}, "registered_name": null}, "beta_regularizer": null, "gamma_regularizer": null, "beta_constraint": null, "gamma_constraint": null, "synchronized": false}, "name": "batch_normalization_394", "inbound_nodes": [{"args": [{"class_name": "__keras_tensor__", "config": {"shape": [null, 16, 16, 48], "dtype": "float32", "keras_history": ["conv2d_394", 0, 0]}}], "kwargs": {"mask": null}}]}, {"class_name": "BatchNormalization", "config": {"name": "batch_normalization_397", "trainable": false, "dtype": {"module": "keras", "class_name": "DTypePolicy", "config": {"name": "float32"}, "registered_name": null}, "axis": 3, "momentum": 0.99, "epsilon": 0.001, "center": true, "scale": false, "beta_initializer": {"module": "keras.initializers", "class_name": "Zeros", "config": {}, "registered_name": null}, "gamma_initializer": {"module": "keras.initializers", "class_name": "Ones", "config": {}, "registered_name": null}, "moving_mean_initializer": {"module": "keras.initializers", "class_name": "Zeros", "config": {}, "registered_name": null}, "moving_variance_initializer": {"module": "keras.initializers", "class_name": "Ones", "config": {}, "registered_name": null}, "beta_regularizer": null, "gamma_regularizer": null, "beta_constraint": null, "gamma_constraint": null, "synchronized": false}, "name": "batch_normalization_397", "inbound_nodes": [{"args": [{"class_name": "__keras_tensor__", "config": {"shape": [null, 16, 16, 96], "dtype": "float32", "keras_history": ["conv2d_397", 0, 0]}}], "kwargs": {"mask": null}}]}, {"class_name": "Activation", "config": {"name": "activation_382", "trainable": false, "dtype": {"module": "keras", "class_name": "DTypePolicy", "config": {"name": "float32"}, "registered_name": null}, "activation": "relu"}, "name": "activation_382", "inbound_nodes": [{"args": [{"class_name": "__keras_tensor__", "config": {"shape": [null, 16, 16, 48], "dtype": "float32", "keras_history": ["batch_normalization_394", 0, 0]}}], "kwargs": {}}]}, {"class_name": "Activation", "config": {"name": "activation_385", "trainable": false, "dtype": {"module": "keras", "class_name": "DTypePolicy", "config": {"name": "float32"}, "registered_name": null}, "activation": "relu"}, "name": "activation_385", "inbound_nodes": [{"args": [{"class_name": "__keras_tensor__", "config": {"shape": [null, 16, 16, 96], "dtype": "float32", "keras_history": ["batch_normalization_397", 0, 0]}}], "kwargs": {}}]}, {"class_name": "AveragePooling2D", "config": {"name": "average_pooling2d_36", "trainable": false, "dtype": {"module": "keras", "class_name": "DTypePolicy", "config": {"name": "float32"}, "registered_name": null}, "pool_size": [3, 3], "padding": "same", "strides": [1, 1], "data_format": "channels_last"}, "name": "average_pooling2d_36", "inbound_nodes": [{"args": [{"class_name": "__keras_tensor__", "config": {"shape": [null, 16, 16, 192], "dtype": "float32", "keras_history": ["max_pooling2d_21", 0, 0]}}], "kwargs": {}}]}, {"class_name": "Conv2D", "config": {"name": "conv2d_393", "trainable": false, "dtype": {"module": "keras", "class_name": "DTypePolicy", "config": {"name": "float32"}, "registered_name": null}, "filters": 64, "kernel_size": [1, 1], "strides": [1, 1], "padding": "same", "data_format": "channels_last", "dilation_rate": [1, 1], "groups": 1, "activation": "linear", "use_bias": false, "kernel_initializer": {"module": "keras.initializers", "class_name": "GlorotUniform", "config": {"seed": null}, "registered_name": null}, "bias_initializer": {"module": "keras.initializers", "class_name": "Zeros", "config": {}, "registered_name": null}, "kernel_regularizer": null, "bias_regularizer": null, "activity_regularizer": null, "kernel_constraint": null, "bias_constraint": null}, "name": "conv2d_393", "inbound_nodes": [{"args": [{"class_name": "__keras_tensor__", "config": {"shape": [null, 16, 16, 192], "dtype": "float32", "keras_history": ["max_pooling2d_21", 0, 0]}}], "kwargs": {}}]}, {"class_name": "Conv2D", "config": {"name": "conv2d_395", "trainable": false, "dtype": {"module": "keras", "class_name": "DTypePolicy", "config": {"name": "float32"}, "registered_name": null}, "filters": 64, "kernel_size": [5, 5], "strides": [1, 1], "padding": "same", "data_format": "channels_last", "dilation_rate": [1, 1], "groups": 1, "activation": "linear", "use_bias": false, "kernel_initializer": {"module": "keras.initializers", "class_name": "GlorotUniform", "config": {"seed": null}, "registered_name": null}, "bias_initializer": {"module": "keras.initializers", "class_name": "Zeros", "config": {}, "registered_name": null}, "kernel_regularizer": null, "bias_regularizer": null, "activity_regularizer": null, "kernel_constraint": null, "bias_constraint": null}, "name": "conv2d_395", "inbound_nodes": [{"args": [{"class_name": "__keras_tensor__", "config": {"shape": [null, 16, 16, 48], "dtype": "float32", "keras_history": ["activation_382", 0, 0]}}], "kwargs": {}}]}, {"class_name": "Conv2D", "config": {"name": "conv2d_398", "trainable": false, "dtype": {"module": "keras", "class_name": "DTypePolicy", "config": {"name": "float32"}, "registered_name": null}, "filters": 96, "kernel_size": [3, 3], "strides": [1, 1], "padding": "same", "data_format": "channels_last", "dilation_rate": [1, 1], "groups": 1, "activation": "linear", "use_bias": false, "kernel_initializer": {"module": "keras.initializers", "class_name": "GlorotUniform", "config": {"seed": null}, "registered_name": null}, "bias_initializer": {"module": "keras.initializers", "class_name": "Zeros", "config": {}, "registered_name": null}, "kernel_regularizer": null, "bias_regularizer": null, "activity_regularizer": null, "kernel_constraint": null, "bias_constraint": null}, "name": "conv2d_398", "inbound_nodes": [{"args": [{"class_name": "__keras_tensor__", "config": {"shape": [null, 16, 16, 96], "dtype": "float32", "keras_history": ["activation_385", 0, 0]}}], "kwargs": {}}]}, {"class_name": "Conv2D", "config": {"name": "conv2d_399", "trainable": false, "dtype": {"module": "keras", "class_name": "DTypePolicy", "config": {"name": "float32"}, "registered_name": null}, "filters": 32, "kernel_size": [1, 1], "strides": [1, 1], "padding": "same", "data_format": "channels_last", "dilation_rate": [1, 1], "groups": 1, "activation": "linear", "use_bias": false, "kernel_initializer": {"module": "keras.initializers", "class_name": "GlorotUniform", "config": {"seed": null}, "registered_name": null}, "bias_initializer": {"module": "keras.initializers", "class_name": "Zeros", "config": {}, "registered_name": null}, "kernel_regularizer": null, "bias_regularizer": null, "activity_regularizer": null, "kernel_constraint": null, "bias_constraint": null}, "name": "conv2d_399", "inbound_nodes": [{"args": [{"class_name": "__keras_tensor__", "config": {"shape": [null, 16, 16, 192], "dtype": "float32", "keras_history": ["average_pooling2d_36", 0, 0]}}], "kwargs": {}}]}, {"class_name": "BatchNormalization", "config": {"name": "batch_normalization_393", "trainable": false, "dtype": {"module": "keras", "class_name": "DTypePolicy", "config": {"name": "float32"}, "registered_name": null}, "axis": 3, "momentum": 0.99, "epsilon": 0.001, "center": true, "scale": false, "beta_initializer": {"module": "keras.initializers", "class_name": "Zeros", "config": {}, "registered_name": null}, "gamma_initializer": {"module": "keras.initializers", "class_name": "Ones", "config": {}, "registered_name": null}, "moving_mean_initializer": {"module": "keras.initializers", "class_name": "Zeros", "config": {}, "registered_name": null}, "moving_variance_initializer": {"module": "keras.initializers", "class_name": "Ones", "config": {}, "registered_name": null}, "beta_regularizer": null, "gamma_regularizer": null, "beta_constraint": null, "gamma_constraint": null, "synchronized": false}, "name": "batch_normalization_393", "inbound_nodes": [{"args": [{"class_name": "__keras_tensor__", "config": {"shape": [null, 16, 16, 64], "dtype": "float32", "keras_history": ["conv2d_393", 0, 0]}}], "kwargs": {"mask": null}}]}, {"class_name": "BatchNormalization", "config": {"name": "batch_normalization_395", "trainable": false, "dtype": {"module": "keras", "class_name": "DTypePolicy", "config": {"name": "float32"}, "registered_name": null}, "axis": 3, "momentum": 0.99, "epsilon": 0.001, "center": true, "scale": false, "beta_initializer": {"module": "keras.initializers", "class_name": "Zeros", "config": {}, "registered_name": null}, "gamma_initializer": {"module": "keras.initializers", "class_name": "Ones", "config": {}, "registered_name": null}, "moving_mean_initializer": {"module": "keras.initializers", "class_name": "Zeros", "config": {}, "registered_name": null}, "moving_variance_initializer": {"module": "keras.initializers", "class_name": "Ones", "config": {}, "registered_name": null}, "beta_regularizer": null, "gamma_regularizer": null, "beta_constraint": null, "gamma_constraint": null, "synchronized": false}, "name": "batch_normalization_395", "inbound_nodes": [{"args": [{"class_name": "__keras_tensor__", "config": {"shape": [null, 16, 16, 64], "dtype": "float32", "keras_history": ["conv2d_395", 0, 0]}}], "kwargs": {"mask": null}}]}, {"class_name": "BatchNormalization", "config": {"name": "batch_normalization_398", "trainable": false, "dtype": {"module": "keras", "class_name": "DTypePolicy", "config": {"name": "float32"}, "registered_name": null}, "axis": 3, "momentum": 0.99, "epsilon": 0.001, "center": true, "scale": false, "beta_initializer": {"module": "keras.initializers", "class_name": "Zeros", "config": {}, "registered_name": null}, "gamma_initializer": {"module": "keras.initializers", "class_name": "Ones", "config": {}, "registered_name": null}, "moving_mean_initializer": {"module": "keras.initializers", "class_name": "Zeros", "config": {}, "registered_name": null}, "moving_variance_initializer": {"module": "keras.initializers", "class_name": "Ones", "config": {}, "registered_name": null}, "beta_regularizer": null, "gamma_regularizer": null, "beta_constraint": null, "gamma_constraint": null, "synchronized": false}, "name": "batch_normalization_398", "inbound_nodes": [{"args": [{"class_name": "__keras_tensor__", "config": {"shape": [null, 16, 16, 96], "dtype": "float32", "keras_history": ["conv2d_398", 0, 0]}}], "kwargs": {"mask": null}}]}, {"class_name": "BatchNormalization", "config": {"name": "batch_normalization_399", "trainable": false, "dtype": {"module": "keras", "class_name": "DTypePolicy", "config": {"name": "float32"}, "registered_name": null}, "axis": 3, "momentum": 0.99, "epsilon": 0.001, "center": true, "scale": false, "beta_initializer": {"module": "keras.initializers", "class_name": "Zeros", "config": {}, "registered_name": null}, "gamma_initializer": {"module": "keras.initializers", "class_name": "Ones", "config": {}, "registered_name": null}, "moving_mean_initializer": {"module": "keras.initializers", "class_name": "Zeros", "config": {}, "registered_name": null}, "moving_variance_initializer": {"module": "keras.initializers", "class_name": "Ones", "config": {}, "registered_name": null}, "beta_regularizer": null, "gamma_regularizer": null, "beta_constraint": null, "gamma_constraint": null, "synchronized": false}, "name": "batch_normalization_399", "inbound_nodes": [{"args": [{"class_name": "__keras_tensor__", "config": {"shape": [null, 16, 16, 32], "dtype": "float32", "keras_history": ["conv2d_399", 0, 0]}}], "kwargs": {"mask": null}}]}, {"class_name": "Activation", "config": {"name": "activation_381", "trainable": false, "dtype": {"module": "keras", "class_name": "DTypePolicy", "config": {"name": "float32"}, "registered_name": null}, "activation": "relu"}, "name": "activation_381", "inbound_nodes": [{"args": [{"class_name": "__keras_tensor__", "config": {"shape": [null, 16, 16, 64], "dtype": "float32", "keras_history": ["batch_normalization_393", 0, 0]}}], "kwargs": {}}]}, {"class_name": "Activation", "config": {"name": "activation_383", "trainable": false, "dtype": {"module": "keras", "class_name": "DTypePolicy", "config": {"name": "float32"}, "registered_name": null}, "activation": "relu"}, "name": "activation_383", "inbound_nodes": [{"args": [{"class_name": "__keras_tensor__", "config": {"shape": [null, 16, 16, 64], "dtype": "float32", "keras_history": ["batch_normalization_395", 0, 0]}}], "kwargs": {}}]}, {"class_name": "Activation", "config": {"name": "activation_386", "trainable": false, "dtype": {"module": "keras", "class_name": "DTypePolicy", "config": {"name": "float32"}, "registered_name": null}, "activation": "relu"}, "name": "activation_386", "inbound_nodes": [{"args": [{"class_name": "__keras_tensor__", "config": {"shape": [null, 16, 16, 96], "dtype": "float32", "keras_history": ["batch_normalization_398", 0, 0]}}], "kwargs": {}}]}, {"class_name": "Activation", "config": {"name": "activation_387", "trainable": false, "dtype": {"module": "keras", "class_name": "DTypePolicy", "config": {"name": "float32"}, "registered_name": null}, "activation": "relu"}, "name": "activation_387", "inbound_nodes": [{"args": [{"class_name": "__keras_tensor__", "config": {"shape": [null, 16, 16, 32], "dtype": "float32", "keras_history": ["batch_normalization_399", 0, 0]}}], "kwargs": {}}]}, {"class_name": "Concatenate", "config": {"name": "mixed0", "trainable": false, "dtype": {"module": "keras", "class_name": "DTypePolicy", "config": {"name": "float32"}, "registered_name": null}, "axis": 3}, "name": "mixed0", "inbound_nodes": [{"args": [[{"class_name": "__keras_tensor__", "config": {"shape": [null, 16, 16, 64], "dtype": "float32", "keras_history": ["activation_381", 0, 0]}}, {"class_name": "__keras_tensor__", "config": {"shape": [null, 16, 16, 64], "dtype": "float32", "keras_history": ["activation_383", 0, 0]}}, {"class_name": "__keras_tensor__", "config": {"shape": [null, 16, 16, 96], "dtype": "float32", "keras_history": ["activation_386", 0, 0]}}, {"class_name": "__keras_tensor__", "config": {"shape": [null, 16, 16, 32], "dtype": "float32", "keras_history": ["activation_387", 0, 0]}}]], "kwargs": {}}]}, {"class_name": "Conv2D", "config": {"name": "conv2d_403", "trainable": false, "dtype": {"module": "keras", "class_name": "DTypePolicy", "config": {"name": "float32"}, "registered_name": null}, "filters": 64, "kernel_size": [1, 1], "strides": [1, 1], "padding": "same", "data_format": "channels_last", "dilation_rate": [1, 1], "groups": 1, "activation": "linear", "use_bias": false, "kernel_initializer": {"module": "keras.initializers", "class_name": "GlorotUniform", "config": {"seed": null}, "registered_name": null}, "bias_initializer": {"module": "keras.initializers", "class_name": "Zeros", "config": {}, "registered_name": null}, "kernel_regularizer": null, "bias_regularizer": null, "activity_regularizer": null, "kernel_constraint": null, "bias_constraint": null}, "name": "conv2d_403", "inbound_nodes": [{"args": [{"class_name": "__keras_tensor__", "config": {"shape": [null, 16, 16, 256], "dtype": "float32", "keras_history": ["mixed0", 0, 0]}}], "kwargs": {}}]}, {"class_name": "BatchNormalization", "config": {"name": "batch_normalization_403", "trainable": false, "dtype": {"module": "keras", "class_name": "DTypePolicy", "config": {"name": "float32"}, "registered_name": null}, "axis": 3, "momentum": 0.99, "epsilon": 0.001, "center": true, "scale": false, "beta_initializer": {"module": "keras.initializers", "class_name": "Zeros", "config": {}, "registered_name": null}, "gamma_initializer": {"module": "keras.initializers", "class_name": "Ones", "config": {}, "registered_name": null}, "moving_mean_initializer": {"module": "keras.initializers", "class_name": "Zeros", "config": {}, "registered_name": null}, "moving_variance_initializer": {"module": "keras.initializers", "class_name": "Ones", "config": {}, "registered_name": null}, "beta_regularizer": null, "gamma_regularizer": null, "beta_constraint": null, "gamma_constraint": null, "synchronized": false}, "name": "batch_normalization_403", "inbound_nodes": [{"args": [{"class_name": "__keras_tensor__", "config": {"shape": [null, 16, 16, 64], "dtype": "float32", "keras_history": ["conv2d_403", 0, 0]}}], "kwargs": {"mask": null}}]}, {"class_name": "Activation", "config": {"name": "activation_391", "trainable": false, "dtype": {"module": "keras", "class_name": "DTypePolicy", "config": {"name": "float32"}, "registered_name": null}, "activation": "relu"}, "name": "activation_391", "inbound_nodes": [{"args": [{"class_name": "__keras_tensor__", "config": {"shape": [null, 16, 16, 64], "dtype": "float32", "keras_history": ["batch_normalization_403", 0, 0]}}], "kwargs": {}}]}, {"class_name": "Conv2D", "config": {"name": "conv2d_401", "trainable": false, "dtype": {"module": "keras", "class_name": "DTypePolicy", "config": {"name": "float32"}, "registered_name": null}, "filters": 48, "kernel_size": [1, 1], "strides": [1, 1], "padding": "same", "data_format": "channels_last", "dilation_rate": [1, 1], "groups": 1, "activation": "linear", "use_bias": false, "kernel_initializer": {"module": "keras.initializers", "class_name": "GlorotUniform", "config": {"seed": null}, "registered_name": null}, "bias_initializer": {"module": "keras.initializers", "class_name": "Zeros", "config": {}, "registered_name": null}, "kernel_regularizer": null, "bias_regularizer": null, "activity_regularizer": null, "kernel_constraint": null, "bias_constraint": null}, "name": "conv2d_401", "inbound_nodes": [{"args": [{"class_name": "__keras_tensor__", "config": {"shape": [null, 16, 16, 256], "dtype": "float32", "keras_history": ["mixed0", 0, 0]}}], "kwargs": {}}]}, {"class_name": "Conv2D", "config": {"name": "conv2d_404", "trainable": false, "dtype": {"module": "keras", "class_name": "DTypePolicy", "config": {"name": "float32"}, "registered_name": null}, "filters": 96, "kernel_size": [3, 3], "strides": [1, 1], "padding": "same", "data_format": "channels_last", "dilation_rate": [1, 1], "groups": 1, "activation": "linear", "use_bias": false, "kernel_initializer": {"module": "keras.initializers", "class_name": "GlorotUniform", "config": {"seed": null}, "registered_name": null}, "bias_initializer": {"module": "keras.initializers", "class_name": "Zeros", "config": {}, "registered_name": null}, "kernel_regularizer": null, "bias_regularizer": null, "activity_regularizer": null, "kernel_constraint": null, "bias_constraint": null}, "name": "conv2d_404", "inbound_nodes": [{"args": [{"class_name": "__keras_tensor__", "config": {"shape": [null, 16, 16, 64], "dtype": "float32", "keras_history": ["activation_391", 0, 0]}}], "kwargs": {}}]}, {"class_name": "BatchNormalization", "config": {"name": "batch_normalization_401", "trainable": false, "dtype": {"module": "keras", "class_name": "DTypePolicy", "config": {"name": "float32"}, "registered_name": null}, "axis": 3, "momentum": 0.99, "epsilon": 0.001, "center": true, "scale": false, "beta_initializer": {"module": "keras.initializers", "class_name": "Zeros", "config": {}, "registered_name": null}, "gamma_initializer": {"module": "keras.initializers", "class_name": "Ones", "config": {}, "registered_name": null}, "moving_mean_initializer": {"module": "keras.initializers", "class_name": "Zeros", "config": {}, "registered_name": null}, "moving_variance_initializer": {"module": "keras.initializers", "class_name": "Ones", "config": {}, "registered_name": null}, "beta_regularizer": null, "gamma_regularizer": null, "beta_constraint": null, "gamma_constraint": null, "synchronized": false}, "name": "batch_normalization_401", "inbound_nodes": [{"args": [{"class_name": "__keras_tensor__", "config": {"shape": [null, 16, 16, 48], "dtype": "float32", "keras_history": ["conv2d_401", 0, 0]}}], "kwargs": {"mask": null}}]}, {"class_name": "BatchNormalization", "config": {"name": "batch_normalization_404", "trainable": false, "dtype": {"module": "keras", "class_name": "DTypePolicy", "config": {"name": "float32"}, "registered_name": null}, "axis": 3, "momentum": 0.99, "epsilon": 0.001, "center": true, "scale": false, "beta_initializer": {"module": "keras.initializers", "class_name": "Zeros", "config": {}, "registered_name": null}, "gamma_initializer": {"module": "keras.initializers", "class_name": "Ones", "config": {}, "registered_name": null}, "moving_mean_initializer": {"module": "keras.initializers", "class_name": "Zeros", "config": {}, "registered_name": null}, "moving_variance_initializer": {"module": "keras.initializers", "class_name": "Ones", "config": {}, "registered_name": null}, "beta_regularizer": null, "gamma_regularizer": null, "beta_constraint": null, "gamma_constraint": null, "synchronized": false}, "name": "batch_normalization_404", "inbound_nodes": [{"args": [{"class_name": "__keras_tensor__", "config": {"shape": [null, 16, 16, 96], "dtype": "float32", "keras_history": ["conv2d_404", 0, 0]}}], "kwargs": {"mask": null}}]}, {"class_name": "Activation", "config": {"name": "activation_389", "trainable": false, "dtype": {"module": "keras", "class_name": "DTypePolicy", "config": {"name": "float32"}, "registered_name": null}, "activation": "relu"}, "name": "activation_389", "inbound_nodes": [{"args": [{"class_name": "__keras_tensor__", "config": {"shape": [null, 16, 16, 48], "dtype": "float32", "keras_history": ["batch_normalization_401", 0, 0]}}], "kwargs": {}}]}, {"class_name": "Activation", "config": {"name": "activation_392", "trainable": false, "dtype": {"module": "keras", "class_name": "DTypePolicy", "config": {"name": "float32"}, "registered_name": null}, "activation": "relu"}, "name": "activation_392", "inbound_nodes": [{"args": [{"class_name": "__keras_tensor__", "config": {"shape": [null, 16, 16, 96], "dtype": "float32", "keras_history": ["batch_normalization_404", 0, 0]}}], "kwargs": {}}]}, {"class_name": "AveragePooling2D", "config": {"name": "average_pooling2d_37", "trainable": false, "dtype": {"module": "keras", "class_name": "DTypePolicy", "config": {"name": "float32"}, "registered_name": null}, "pool_size": [3, 3], "padding": "same", "strides": [1, 1], "data_format": "channels_last"}, "name": "average_pooling2d_37", "inbound_nodes": [{"args": [{"class_name": "__keras_tensor__", "config": {"shape": [null, 16, 16, 256], "dtype": "float32", "keras_history": ["mixed0", 0, 0]}}], "kwargs": {}}]}, {"class_name": "Conv2D", "config": {"name": "conv2d_400", "trainable": false, "dtype": {"module": "keras", "class_name": "DTypePolicy", "config": {"name": "float32"}, "registered_name": null}, "filters": 64, "kernel_size": [1, 1], "strides": [1, 1], "padding": "same", "data_format": "channels_last", "dilation_rate": [1, 1], "groups": 1, "activation": "linear", "use_bias": false, "kernel_initializer": {"module": "keras.initializers", "class_name": "GlorotUniform", "config": {"seed": null}, "registered_name": null}, "bias_initializer": {"module": "keras.initializers", "class_name": "Zeros", "config": {}, "registered_name": null}, "kernel_regularizer": null, "bias_regularizer": null, "activity_regularizer": null, "kernel_constraint": null, "bias_constraint": null}, "name": "conv2d_400", "inbound_nodes": [{"args": [{"class_name": "__keras_tensor__", "config": {"shape": [null, 16, 16, 256], "dtype": "float32", "keras_history": ["mixed0", 0, 0]}}], "kwargs": {}}]}, {"class_name": "Conv2D", "config": {"name": "conv2d_402", "trainable": false, "dtype": {"module": "keras", "class_name": "DTypePolicy", "config": {"name": "float32"}, "registered_name": null}, "filters": 64, "kernel_size": [5, 5], "strides": [1, 1], "padding": "same", "data_format": "channels_last", "dilation_rate": [1, 1], "groups": 1, "activation": "linear", "use_bias": false, "kernel_initializer": {"module": "keras.initializers", "class_name": "GlorotUniform", "config": {"seed": null}, "registered_name": null}, "bias_initializer": {"module": "keras.initializers", "class_name": "Zeros", "config": {}, "registered_name": null}, "kernel_regularizer": null, "bias_regularizer": null, "activity_regularizer": null, "kernel_constraint": null, "bias_constraint": null}, "name": "conv2d_402", "inbound_nodes": [{"args": [{"class_name": "__keras_tensor__", "config": {"shape": [null, 16, 16, 48], "dtype": "float32", "keras_history": ["activation_389", 0, 0]}}], "kwargs": {}}]}, {"class_name": "Conv2D", "config": {"name": "conv2d_405", "trainable": false, "dtype": {"module": "keras", "class_name": "DTypePolicy", "config": {"name": "float32"}, "registered_name": null}, "filters": 96, "kernel_size": [3, 3], "strides": [1, 1], "padding": "same", "data_format": "channels_last", "dilation_rate": [1, 1], "groups": 1, "activation": "linear", "use_bias": false, "kernel_initializer": {"module": "keras.initializers", "class_name": "GlorotUniform", "config": {"seed": null}, "registered_name": null}, "bias_initializer": {"module": "keras.initializers", "class_name": "Zeros", "config": {}, "registered_name": null}, "kernel_regularizer": null, "bias_regularizer": null, "activity_regularizer": null, "kernel_constraint": null, "bias_constraint": null}, "name": "conv2d_405", "inbound_nodes": [{"args": [{"class_name": "__keras_tensor__", "config": {"shape": [null, 16, 16, 96], "dtype": "float32", "keras_history": ["activation_392", 0, 0]}}], "kwargs": {}}]}, {"class_name": "Conv2D", "config": {"name": "conv2d_406", "trainable": false, "dtype": {"module": "keras", "class_name": "DTypePolicy", "config": {"name": "float32"}, "registered_name": null}, "filters": 64, "kernel_size": [1, 1], "strides": [1, 1], "padding": "same", "data_format": "channels_last", "dilation_rate": [1, 1], "groups": 1, "activation": "linear", "use_bias": false, "kernel_initializer": {"module": "keras.initializers", "class_name": "GlorotUniform", "config": {"seed": null}, "registered_name": null}, "bias_initializer": {"module": "keras.initializers", "class_name": "Zeros", "config": {}, "registered_name": null}, "kernel_regularizer": null, "bias_regularizer": null, "activity_regularizer": null, "kernel_constraint": null, "bias_constraint": null}, "name": "conv2d_406", "inbound_nodes": [{"args": [{"class_name": "__keras_tensor__", "config": {"shape": [null, 16, 16, 256], "dtype": "float32", "keras_history": ["average_pooling2d_37", 0, 0]}}], "kwargs": {}}]}, {"class_name": "BatchNormalization", "config": {"name": "batch_normalization_400", "trainable": false, "dtype": {"module": "keras", "class_name": "DTypePolicy", "config": {"name": "float32"}, "registered_name": null}, "axis": 3, "momentum": 0.99, "epsilon": 0.001, "center": true, "scale": false, "beta_initializer": {"module": "keras.initializers", "class_name": "Zeros", "config": {}, "registered_name": null}, "gamma_initializer": {"module": "keras.initializers", "class_name": "Ones", "config": {}, "registered_name": null}, "moving_mean_initializer": {"module": "keras.initializers", "class_name": "Zeros", "config": {}, "registered_name": null}, "moving_variance_initializer": {"module": "keras.initializers", "class_name": "Ones", "config": {}, "registered_name": null}, "beta_regularizer": null, "gamma_regularizer": null, "beta_constraint": null, "gamma_constraint": null, "synchronized": false}, "name": "batch_normalization_400", "inbound_nodes": [{"args": [{"class_name": "__keras_tensor__", "config": {"shape": [null, 16, 16, 64], "dtype": "float32", "keras_history": ["conv2d_400", 0, 0]}}], "kwargs": {"mask": null}}]}, {"class_name": "BatchNormalization", "config": {"name": "batch_normalization_402", "trainable": false, "dtype": {"module": "keras", "class_name": "DTypePolicy", "config": {"name": "float32"}, "registered_name": null}, "axis": 3, "momentum": 0.99, "epsilon": 0.001, "center": true, "scale": false, "beta_initializer": {"module": "keras.initializers", "class_name": "Zeros", "config": {}, "registered_name": null}, "gamma_initializer": {"module": "keras.initializers", "class_name": "Ones", "config": {}, "registered_name": null}, "moving_mean_initializer": {"module": "keras.initializers", "class_name": "Zeros", "config": {}, "registered_name": null}, "moving_variance_initializer": {"module": "keras.initializers", "class_name": "Ones", "config": {}, "registered_name": null}, "beta_regularizer": null, "gamma_regularizer": null, "beta_constraint": null, "gamma_constraint": null, "synchronized": false}, "name": "batch_normalization_402", "inbound_nodes": [{"args": [{"class_name": "__keras_tensor__", "config": {"shape": [null, 16, 16, 64], "dtype": "float32", "keras_history": ["conv2d_402", 0, 0]}}], "kwargs": {"mask": null}}]}, {"class_name": "BatchNormalization", "config": {"name": "batch_normalization_405", "trainable": false, "dtype": {"module": "keras", "class_name": "DTypePolicy", "config": {"name": "float32"}, "registered_name": null}, "axis": 3, "momentum": 0.99, "epsilon": 0.001, "center": true, "scale": false, "beta_initializer": {"module": "keras.initializers", "class_name": "Zeros", "config": {}, "registered_name": null}, "gamma_initializer": {"module": "keras.initializers", "class_name": "Ones", "config": {}, "registered_name": null}, "moving_mean_initializer": {"module": "keras.initializers", "class_name": "Zeros", "config": {}, "registered_name": null}, "moving_variance_initializer": {"module": "keras.initializers", "class_name": "Ones", "config": {}, "registered_name": null}, "beta_regularizer": null, "gamma_regularizer": null, "beta_constraint": null, "gamma_constraint": null, "synchronized": false}, "name": "batch_normalization_405", "inbound_nodes": [{"args": [{"class_name": "__keras_tensor__", "config": {"shape": [null, 16, 16, 96], "dtype": "float32", "keras_history": ["conv2d_405", 0, 0]}}], "kwargs": {"mask": null}}]}, {"class_name": "BatchNormalization", "config": {"name": "batch_normalization_406", "trainable": false, "dtype": {"module": "keras", "class_name": "DTypePolicy", "config": {"name": "float32"}, "registered_name": null}, "axis": 3, "momentum": 0.99, "epsilon": 0.001, "center": true, "scale": false, "beta_initializer": {"module": "keras.initializers", "class_name": "Zeros", "config": {}, "registered_name": null}, "gamma_initializer": {"module": "keras.initializers", "class_name": "Ones", "config": {}, "registered_name": null}, "moving_mean_initializer": {"module": "keras.initializers", "class_name": "Zeros", "config": {}, "registered_name": null}, "moving_variance_initializer": {"module": "keras.initializers", "class_name": "Ones", "config": {}, "registered_name": null}, "beta_regularizer": null, "gamma_regularizer": null, "beta_constraint": null, "gamma_constraint": null, "synchronized": false}, "name": "batch_normalization_406", "inbound_nodes": [{"args": [{"class_name": "__keras_tensor__", "config": {"shape": [null, 16, 16, 64], "dtype": "float32", "keras_history": ["conv2d_406", 0, 0]}}], "kwargs": {"mask": null}}]}, {"class_name": "Activation", "config": {"name": "activation_388", "trainable": false, "dtype": {"module": "keras", "class_name": "DTypePolicy", "config": {"name": "float32"}, "registered_name": null}, "activation": "relu"}, "name": "activation_388", "inbound_nodes": [{"args": [{"class_name": "__keras_tensor__", "config": {"shape": [null, 16, 16, 64], "dtype": "float32", "keras_history": ["batch_normalization_400", 0, 0]}}], "kwargs": {}}]}, {"class_name": "Activation", "config": {"name": "activation_390", "trainable": false, "dtype": {"module": "keras", "class_name": "DTypePolicy", "config": {"name": "float32"}, "registered_name": null}, "activation": "relu"}, "name": "activation_390", "inbound_nodes": [{"args": [{"class_name": "__keras_tensor__", "config": {"shape": [null, 16, 16, 64], "dtype": "float32", "keras_history": ["batch_normalization_402", 0, 0]}}], "kwargs": {}}]}, {"class_name": "Activation", "config": {"name": "activation_393", "trainable": false, "dtype": {"module": "keras", "class_name": "DTypePolicy", "config": {"name": "float32"}, "registered_name": null}, "activation": "relu"}, "name": "activation_393", "inbound_nodes": [{"args": [{"class_name": "__keras_tensor__", "config": {"shape": [null, 16, 16, 96], "dtype": "float32", "keras_history": ["batch_normalization_405", 0, 0]}}], "kwargs": {}}]}, {"class_name": "Activation", "config": {"name": "activation_394", "trainable": false, "dtype": {"module": "keras", "class_name": "DTypePolicy", "config": {"name": "float32"}, "registered_name": null}, "activation": "relu"}, "name": "activation_394", "inbound_nodes": [{"args": [{"class_name": "__keras_tensor__", "config": {"shape": [null, 16, 16, 64], "dtype": "float32", "keras_history": ["batch_normalization_406", 0, 0]}}], "kwargs": {}}]}, {"class_name": "Concatenate", "config": {"name": "mixed1", "trainable": false, "dtype": {"module": "keras", "class_name": "DTypePolicy", "config": {"name": "float32"}, "registered_name": null}, "axis": 3}, "name": "mixed1", "inbound_nodes": [{"args": [[{"class_name": "__keras_tensor__", "config": {"shape": [null, 16, 16, 64], "dtype": "float32", "keras_history": ["activation_388", 0, 0]}}, {"class_name": "__keras_tensor__", "config": {"shape": [null, 16, 16, 64], "dtype": "float32", "keras_history": ["activation_390", 0, 0]}}, {"class_name": "__keras_tensor__", "config": {"shape": [null, 16, 16, 96], "dtype": "float32", "keras_history": ["activation_393", 0, 0]}}, {"class_name": "__keras_tensor__", "config": {"shape": [null, 16, 16, 64], "dtype": "float32", "keras_history": ["activation_394", 0, 0]}}]], "kwargs": {}}]}, {"class_name": "Conv2D", "config": {"name": "conv2d_410", "trainable": false, "dtype": {"module": "keras", "class_name": "DTypePolicy", "config": {"name": "float32"}, "registered_name": null}, "filters": 64, "kernel_size": [1, 1], "strides": [1, 1], "padding": "same", "data_format": "channels_last", "dilation_rate": [1, 1], "groups": 1, "activation": "linear", "use_bias": false, "kernel_initializer": {"module": "keras.initializers", "class_name": "GlorotUniform", "config": {"seed": null}, "registered_name": null}, "bias_initializer": {"module": "keras.initializers", "class_name": "Zeros", "config": {}, "registered_name": null}, "kernel_regularizer": null, "bias_regularizer": null, "activity_regularizer": null, "kernel_constraint": null, "bias_constraint": null}, "name": "conv2d_410", "inbound_nodes": [{"args": [{"class_name": "__keras_tensor__", "config": {"shape": [null, 16, 16, 288], "dtype": "float32", "keras_history": ["mixed1", 0, 0]}}], "kwargs": {}}]}, {"class_name": "BatchNormalization", "config": {"name": "batch_normalization_410", "trainable": false, "dtype": {"module": "keras", "class_name": "DTypePolicy", "config": {"name": "float32"}, "registered_name": null}, "axis": 3, "momentum": 0.99, "epsilon": 0.001, "center": true, "scale": false, "beta_initializer": {"module": "keras.initializers", "class_name": "Zeros", "config": {}, "registered_name": null}, "gamma_initializer": {"module": "keras.initializers", "class_name": "Ones", "config": {}, "registered_name": null}, "moving_mean_initializer": {"module": "keras.initializers", "class_name": "Zeros", "config": {}, "registered_name": null}, "moving_variance_initializer": {"module": "keras.initializers", "class_name": "Ones", "config": {}, "registered_name": null}, "beta_regularizer": null, "gamma_regularizer": null, "beta_constraint": null, "gamma_constraint": null, "synchronized": false}, "name": "batch_normalization_410", "inbound_nodes": [{"args": [{"class_name": "__keras_tensor__", "config": {"shape": [null, 16, 16, 64], "dtype": "float32", "keras_history": ["conv2d_410", 0, 0]}}], "kwargs": {"mask": null}}]}, {"class_name": "Activation", "config": {"name": "activation_398", "trainable": false, "dtype": {"module": "keras", "class_name": "DTypePolicy", "config": {"name": "float32"}, "registered_name": null}, "activation": "relu"}, "name": "activation_398", "inbound_nodes": [{"args": [{"class_name": "__keras_tensor__", "config": {"shape": [null, 16, 16, 64], "dtype": "float32", "keras_history": ["batch_normalization_410", 0, 0]}}], "kwargs": {}}]}, {"class_name": "Conv2D", "config": {"name": "conv2d_408", "trainable": false, "dtype": {"module": "keras", "class_name": "DTypePolicy", "config": {"name": "float32"}, "registered_name": null}, "filters": 48, "kernel_size": [1, 1], "strides": [1, 1], "padding": "same", "data_format": "channels_last", "dilation_rate": [1, 1], "groups": 1, "activation": "linear", "use_bias": false, "kernel_initializer": {"module": "keras.initializers", "class_name": "GlorotUniform", "config": {"seed": null}, "registered_name": null}, "bias_initializer": {"module": "keras.initializers", "class_name": "Zeros", "config": {}, "registered_name": null}, "kernel_regularizer": null, "bias_regularizer": null, "activity_regularizer": null, "kernel_constraint": null, "bias_constraint": null}, "name": "conv2d_408", "inbound_nodes": [{"args": [{"class_name": "__keras_tensor__", "config": {"shape": [null, 16, 16, 288], "dtype": "float32", "keras_history": ["mixed1", 0, 0]}}], "kwargs": {}}]}, {"class_name": "Conv2D", "config": {"name": "conv2d_411", "trainable": false, "dtype": {"module": "keras", "class_name": "DTypePolicy", "config": {"name": "float32"}, "registered_name": null}, "filters": 96, "kernel_size": [3, 3], "strides": [1, 1], "padding": "same", "data_format": "channels_last", "dilation_rate": [1, 1], "groups": 1, "activation": "linear", "use_bias": false, "kernel_initializer": {"module": "keras.initializers", "class_name": "GlorotUniform", "config": {"seed": null}, "registered_name": null}, "bias_initializer": {"module": "keras.initializers", "class_name": "Zeros", "config": {}, "registered_name": null}, "kernel_regularizer": null, "bias_regularizer": null, "activity_regularizer": null, "kernel_constraint": null, "bias_constraint": null}, "name": "conv2d_411", "inbound_nodes": [{"args": [{"class_name": "__keras_tensor__", "config": {"shape": [null, 16, 16, 64], "dtype": "float32", "keras_history": ["activation_398", 0, 0]}}], "kwargs": {}}]}, {"class_name": "BatchNormalization", "config": {"name": "batch_normalization_408", "trainable": false, "dtype": {"module": "keras", "class_name": "DTypePolicy", "config": {"name": "float32"}, "registered_name": null}, "axis": 3, "momentum": 0.99, "epsilon": 0.001, "center": true, "scale": false, "beta_initializer": {"module": "keras.initializers", "class_name": "Zeros", "config": {}, "registered_name": null}, "gamma_initializer": {"module": "keras.initializers", "class_name": "Ones", "config": {}, "registered_name": null}, "moving_mean_initializer": {"module": "keras.initializers", "class_name": "Zeros", "config": {}, "registered_name": null}, "moving_variance_initializer": {"module": "keras.initializers", "class_name": "Ones", "config": {}, "registered_name": null}, "beta_regularizer": null, "gamma_regularizer": null, "beta_constraint": null, "gamma_constraint": null, "synchronized": false}, "name": "batch_normalization_408", "inbound_nodes": [{"args": [{"class_name": "__keras_tensor__", "config": {"shape": [null, 16, 16, 48], "dtype": "float32", "keras_history": ["conv2d_408", 0, 0]}}], "kwargs": {"mask": null}}]}, {"class_name": "BatchNormalization", "config": {"name": "batch_normalization_411", "trainable": false, "dtype": {"module": "keras", "class_name": "DTypePolicy", "config": {"name": "float32"}, "registered_name": null}, "axis": 3, "momentum": 0.99, "epsilon": 0.001, "center": true, "scale": false, "beta_initializer": {"module": "keras.initializers", "class_name": "Zeros", "config": {}, "registered_name": null}, "gamma_initializer": {"module": "keras.initializers", "class_name": "Ones", "config": {}, "registered_name": null}, "moving_mean_initializer": {"module": "keras.initializers", "class_name": "Zeros", "config": {}, "registered_name": null}, "moving_variance_initializer": {"module": "keras.initializers", "class_name": "Ones", "config": {}, "registered_name": null}, "beta_regularizer": null, "gamma_regularizer": null, "beta_constraint": null, "gamma_constraint": null, "synchronized": false}, "name": "batch_normalization_411", "inbound_nodes": [{"args": [{"class_name": "__keras_tensor__", "config": {"shape": [null, 16, 16, 96], "dtype": "float32", "keras_history": ["conv2d_411", 0, 0]}}], "kwargs": {"mask": null}}]}, {"class_name": "Activation", "config": {"name": "activation_396", "trainable": false, "dtype": {"module": "keras", "class_name": "DTypePolicy", "config": {"name": "float32"}, "registered_name": null}, "activation": "relu"}, "name": "activation_396", "inbound_nodes": [{"args": [{"class_name": "__keras_tensor__", "config": {"shape": [null, 16, 16, 48], "dtype": "float32", "keras_history": ["batch_normalization_408", 0, 0]}}], "kwargs": {}}]}, {"class_name": "Activation", "config": {"name": "activation_399", "trainable": false, "dtype": {"module": "keras", "class_name": "DTypePolicy", "config": {"name": "float32"}, "registered_name": null}, "activation": "relu"}, "name": "activation_399", "inbound_nodes": [{"args": [{"class_name": "__keras_tensor__", "config": {"shape": [null, 16, 16, 96], "dtype": "float32", "keras_history": ["batch_normalization_411", 0, 0]}}], "kwargs": {}}]}, {"class_name": "AveragePooling2D", "config": {"name": "average_pooling2d_38", "trainable": false, "dtype": {"module": "keras", "class_name": "DTypePolicy", "config": {"name": "float32"}, "registered_name": null}, "pool_size": [3, 3], "padding": "same", "strides": [1, 1], "data_format": "channels_last"}, "name": "average_pooling2d_38", "inbound_nodes": [{"args": [{"class_name": "__keras_tensor__", "config": {"shape": [null, 16, 16, 288], "dtype": "float32", "keras_history": ["mixed1", 0, 0]}}], "kwargs": {}}]}, {"class_name": "Conv2D", "config": {"name": "conv2d_407", "trainable": false, "dtype": {"module": "keras", "class_name": "DTypePolicy", "config": {"name": "float32"}, "registered_name": null}, "filters": 64, "kernel_size": [1, 1], "strides": [1, 1], "padding": "same", "data_format": "channels_last", "dilation_rate": [1, 1], "groups": 1, "activation": "linear", "use_bias": false, "kernel_initializer": {"module": "keras.initializers", "class_name": "GlorotUniform", "config": {"seed": null}, "registered_name": null}, "bias_initializer": {"module": "keras.initializers", "class_name": "Zeros", "config": {}, "registered_name": null}, "kernel_regularizer": null, "bias_regularizer": null, "activity_regularizer": null, "kernel_constraint": null, "bias_constraint": null}, "name": "conv2d_407", "inbound_nodes": [{"args": [{"class_name": "__keras_tensor__", "config": {"shape": [null, 16, 16, 288], "dtype": "float32", "keras_history": ["mixed1", 0, 0]}}], "kwargs": {}}]}, {"class_name": "Conv2D", "config": {"name": "conv2d_409", "trainable": false, "dtype": {"module": "keras", "class_name": "DTypePolicy", "config": {"name": "float32"}, "registered_name": null}, "filters": 64, "kernel_size": [5, 5], "strides": [1, 1], "padding": "same", "data_format": "channels_last", "dilation_rate": [1, 1], "groups": 1, "activation": "linear", "use_bias": false, "kernel_initializer": {"module": "keras.initializers", "class_name": "GlorotUniform", "config": {"seed": null}, "registered_name": null}, "bias_initializer": {"module": "keras.initializers", "class_name": "Zeros", "config": {}, "registered_name": null}, "kernel_regularizer": null, "bias_regularizer": null, "activity_regularizer": null, "kernel_constraint": null, "bias_constraint": null}, "name": "conv2d_409", "inbound_nodes": [{"args": [{"class_name": "__keras_tensor__", "config": {"shape": [null, 16, 16, 48], "dtype": "float32", "keras_history": ["activation_396", 0, 0]}}], "kwargs": {}}]}, {"class_name": "Conv2D", "config": {"name": "conv2d_412", "trainable": false, "dtype": {"module": "keras", "class_name": "DTypePolicy", "config": {"name": "float32"}, "registered_name": null}, "filters": 96, "kernel_size": [3, 3], "strides": [1, 1], "padding": "same", "data_format": "channels_last", "dilation_rate": [1, 1], "groups": 1, "activation": "linear", "use_bias": false, "kernel_initializer": {"module": "keras.initializers", "class_name": "GlorotUniform", "config": {"seed": null}, "registered_name": null}, "bias_initializer": {"module": "keras.initializers", "class_name": "Zeros", "config": {}, "registered_name": null}, "kernel_regularizer": null, "bias_regularizer": null, "activity_regularizer": null, "kernel_constraint": null, "bias_constraint": null}, "name": "conv2d_412", "inbound_nodes": [{"args": [{"class_name": "__keras_tensor__", "config": {"shape": [null, 16, 16, 96], "dtype": "float32", "keras_history": ["activation_399", 0, 0]}}], "kwargs": {}}]}, {"class_name": "Conv2D", "config": {"name": "conv2d_413", "trainable": false, "dtype": {"module": "keras", "class_name": "DTypePolicy", "config": {"name": "float32"}, "registered_name": null}, "filters": 64, "kernel_size": [1, 1], "strides": [1, 1], "padding": "same", "data_format": "channels_last", "dilation_rate": [1, 1], "groups": 1, "activation": "linear", "use_bias": false, "kernel_initializer": {"module": "keras.initializers", "class_name": "GlorotUniform", "config": {"seed": null}, "registered_name": null}, "bias_initializer": {"module": "keras.initializers", "class_name": "Zeros", "config": {}, "registered_name": null}, "kernel_regularizer": null, "bias_regularizer": null, "activity_regularizer": null, "kernel_constraint": null, "bias_constraint": null}, "name": "conv2d_413", "inbound_nodes": [{"args": [{"class_name": "__keras_tensor__", "config": {"shape": [null, 16, 16, 288], "dtype": "float32", "keras_history": ["average_pooling2d_38", 0, 0]}}], "kwargs": {}}]}, {"class_name": "BatchNormalization", "config": {"name": "batch_normalization_407", "trainable": false, "dtype": {"module": "keras", "class_name": "DTypePolicy", "config": {"name": "float32"}, "registered_name": null}, "axis": 3, "momentum": 0.99, "epsilon": 0.001, "center": true, "scale": false, "beta_initializer": {"module": "keras.initializers", "class_name": "Zeros", "config": {}, "registered_name": null}, "gamma_initializer": {"module": "keras.initializers", "class_name": "Ones", "config": {}, "registered_name": null}, "moving_mean_initializer": {"module": "keras.initializers", "class_name": "Zeros", "config": {}, "registered_name": null}, "moving_variance_initializer": {"module": "keras.initializers", "class_name": "Ones", "config": {}, "registered_name": null}, "beta_regularizer": null, "gamma_regularizer": null, "beta_constraint": null, "gamma_constraint": null, "synchronized": false}, "name": "batch_normalization_407", "inbound_nodes": [{"args": [{"class_name": "__keras_tensor__", "config": {"shape": [null, 16, 16, 64], "dtype": "float32", "keras_history": ["conv2d_407", 0, 0]}}], "kwargs": {"mask": null}}]}, {"class_name": "BatchNormalization", "config": {"name": "batch_normalization_409", "trainable": false, "dtype": {"module": "keras", "class_name": "DTypePolicy", "config": {"name": "float32"}, "registered_name": null}, "axis": 3, "momentum": 0.99, "epsilon": 0.001, "center": true, "scale": false, "beta_initializer": {"module": "keras.initializers", "class_name": "Zeros", "config": {}, "registered_name": null}, "gamma_initializer": {"module": "keras.initializers", "class_name": "Ones", "config": {}, "registered_name": null}, "moving_mean_initializer": {"module": "keras.initializers", "class_name": "Zeros", "config": {}, "registered_name": null}, "moving_variance_initializer": {"module": "keras.initializers", "class_name": "Ones", "config": {}, "registered_name": null}, "beta_regularizer": null, "gamma_regularizer": null, "beta_constraint": null, "gamma_constraint": null, "synchronized": false}, "name": "batch_normalization_409", "inbound_nodes": [{"args": [{"class_name": "__keras_tensor__", "config": {"shape": [null, 16, 16, 64], "dtype": "float32", "keras_history": ["conv2d_409", 0, 0]}}], "kwargs": {"mask": null}}]}, {"class_name": "BatchNormalization", "config": {"name": "batch_normalization_412", "trainable": false, "dtype": {"module": "keras", "class_name": "DTypePolicy", "config": {"name": "float32"}, "registered_name": null}, "axis": 3, "momentum": 0.99, "epsilon": 0.001, "center": true, "scale": false, "beta_initializer": {"module": "keras.initializers", "class_name": "Zeros", "config": {}, "registered_name": null}, "gamma_initializer": {"module": "keras.initializers", "class_name": "Ones", "config": {}, "registered_name": null}, "moving_mean_initializer": {"module": "keras.initializers", "class_name": "Zeros", "config": {}, "registered_name": null}, "moving_variance_initializer": {"module": "keras.initializers", "class_name": "Ones", "config": {}, "registered_name": null}, "beta_regularizer": null, "gamma_regularizer": null, "beta_constraint": null, "gamma_constraint": null, "synchronized": false}, "name": "batch_normalization_412", "inbound_nodes": [{"args": [{"class_name": "__keras_tensor__", "config": {"shape": [null, 16, 16, 96], "dtype": "float32", "keras_history": ["conv2d_412", 0, 0]}}], "kwargs": {"mask": null}}]}, {"class_name": "BatchNormalization", "config": {"name": "batch_normalization_413", "trainable": false, "dtype": {"module": "keras", "class_name": "DTypePolicy", "config": {"name": "float32"}, "registered_name": null}, "axis": 3, "momentum": 0.99, "epsilon": 0.001, "center": true, "scale": false, "beta_initializer": {"module": "keras.initializers", "class_name": "Zeros", "config": {}, "registered_name": null}, "gamma_initializer": {"module": "keras.initializers", "class_name": "Ones", "config": {}, "registered_name": null}, "moving_mean_initializer": {"module": "keras.initializers", "class_name": "Zeros", "config": {}, "registered_name": null}, "moving_variance_initializer": {"module": "keras.initializers", "class_name": "Ones", "config": {}, "registered_name": null}, "beta_regularizer": null, "gamma_regularizer": null, "beta_constraint": null, "gamma_constraint": null, "synchronized": false}, "name": "batch_normalization_413", "inbound_nodes": [{"args": [{"class_name": "__keras_tensor__", "config": {"shape": [null, 16, 16, 64], "dtype": "float32", "keras_history": ["conv2d_413", 0, 0]}}], "kwargs": {"mask": null}}]}, {"class_name": "Activation", "config": {"name": "activation_395", "trainable": false, "dtype": {"module": "keras", "class_name": "DTypePolicy", "config": {"name": "float32"}, "registered_name": null}, "activation": "relu"}, "name": "activation_395", "inbound_nodes": [{"args": [{"class_name": "__keras_tensor__", "config": {"shape": [null, 16, 16, 64], "dtype": "float32", "keras_history": ["batch_normalization_407", 0, 0]}}], "kwargs": {}}]}, {"class_name": "Activation", "config": {"name": "activation_397", "trainable": false, "dtype": {"module": "keras", "class_name": "DTypePolicy", "config": {"name": "float32"}, "registered_name": null}, "activation": "relu"}, "name": "activation_397", "inbound_nodes": [{"args": [{"class_name": "__keras_tensor__", "config": {"shape": [null, 16, 16, 64], "dtype": "float32", "keras_history": ["batch_normalization_409", 0, 0]}}], "kwargs": {}}]}, {"class_name": "Activation", "config": {"name": "activation_400", "trainable": false, "dtype": {"module": "keras", "class_name": "DTypePolicy", "config": {"name": "float32"}, "registered_name": null}, "activation": "relu"}, "name": "activation_400", "inbound_nodes": [{"args": [{"class_name": "__keras_tensor__", "config": {"shape": [null, 16, 16, 96], "dtype": "float32", "keras_history": ["batch_normalization_412", 0, 0]}}], "kwargs": {}}]}, {"class_name": "Activation", "config": {"name": "activation_401", "trainable": false, "dtype": {"module": "keras", "class_name": "DTypePolicy", "config": {"name": "float32"}, "registered_name": null}, "activation": "relu"}, "name": "activation_401", "inbound_nodes": [{"args": [{"class_name": "__keras_tensor__", "config": {"shape": [null, 16, 16, 64], "dtype": "float32", "keras_history": ["batch_normalization_413", 0, 0]}}], "kwargs": {}}]}, {"class_name": "Concatenate", "config": {"name": "mixed2", "trainable": false, "dtype": {"module": "keras", "class_name": "DTypePolicy", "config": {"name": "float32"}, "registered_name": null}, "axis": 3}, "name": "mixed2", "inbound_nodes": [{"args": [[{"class_name": "__keras_tensor__", "config": {"shape": [null, 16, 16, 64], "dtype": "float32", "keras_history": ["activation_395", 0, 0]}}, {"class_name": "__keras_tensor__", "config": {"shape": [null, 16, 16, 64], "dtype": "float32", "keras_history": ["activation_397", 0, 0]}}, {"class_name": "__keras_tensor__", "config": {"shape": [null, 16, 16, 96], "dtype": "float32", "keras_history": ["activation_400", 0, 0]}}, {"class_name": "__keras_tensor__", "config": {"shape": [null, 16, 16, 64], "dtype": "float32", "keras_history": ["activation_401", 0, 0]}}]], "kwargs": {}}]}, {"class_name": "Conv2D", "config": {"name": "conv2d_415", "trainable": false, "dtype": {"module": "keras", "class_name": "DTypePolicy", "config": {"name": "float32"}, "registered_name": null}, "filters": 64, "kernel_size": [1, 1], "strides": [1, 1], "padding": "same", "data_format": "channels_last", "dilation_rate": [1, 1], "groups": 1, "activation": "linear", "use_bias": false, "kernel_initializer": {"module": "keras.initializers", "class_name": "GlorotUniform", "config": {"seed": null}, "registered_name": null}, "bias_initializer": {"module": "keras.initializers", "class_name": "Zeros", "config": {}, "registered_name": null}, "kernel_regularizer": null, "bias_regularizer": null, "activity_regularizer": null, "kernel_constraint": null, "bias_constraint": null}, "name": "conv2d_415", "inbound_nodes": [{"args": [{"class_name": "__keras_tensor__", "config": {"shape": [null, 16, 16, 288], "dtype": "float32", "keras_history": ["mixed2", 0, 0]}}], "kwargs": {}}]}, {"class_name": "BatchNormalization", "config": {"name": "batch_normalization_415", "trainable": false, "dtype": {"module": "keras", "class_name": "DTypePolicy", "config": {"name": "float32"}, "registered_name": null}, "axis": 3, "momentum": 0.99, "epsilon": 0.001, "center": true, "scale": false, "beta_initializer": {"module": "keras.initializers", "class_name": "Zeros", "config": {}, "registered_name": null}, "gamma_initializer": {"module": "keras.initializers", "class_name": "Ones", "config": {}, "registered_name": null}, "moving_mean_initializer": {"module": "keras.initializers", "class_name": "Zeros", "config": {}, "registered_name": null}, "moving_variance_initializer": {"module": "keras.initializers", "class_name": "Ones", "config": {}, "registered_name": null}, "beta_regularizer": null, "gamma_regularizer": null, "beta_constraint": null, "gamma_constraint": null, "synchronized": false}, "name": "batch_normalization_415", "inbound_nodes": [{"args": [{"class_name": "__keras_tensor__", "config": {"shape": [null, 16, 16, 64], "dtype": "float32", "keras_history": ["conv2d_415", 0, 0]}}], "kwargs": {"mask": null}}]}, {"class_name": "Activation", "config": {"name": "activation_403", "trainable": false, "dtype": {"module": "keras", "class_name": "DTypePolicy", "config": {"name": "float32"}, "registered_name": null}, "activation": "relu"}, "name": "activation_403", "inbound_nodes": [{"args": [{"class_name": "__keras_tensor__", "config": {"shape": [null, 16, 16, 64], "dtype": "float32", "keras_history": ["batch_normalization_415", 0, 0]}}], "kwargs": {}}]}, {"class_name": "Conv2D", "config": {"name": "conv2d_416", "trainable": false, "dtype": {"module": "keras", "class_name": "DTypePolicy", "config": {"name": "float32"}, "registered_name": null}, "filters": 96, "kernel_size": [3, 3], "strides": [1, 1], "padding": "same", "data_format": "channels_last", "dilation_rate": [1, 1], "groups": 1, "activation": "linear", "use_bias": false, "kernel_initializer": {"module": "keras.initializers", "class_name": "GlorotUniform", "config": {"seed": null}, "registered_name": null}, "bias_initializer": {"module": "keras.initializers", "class_name": "Zeros", "config": {}, "registered_name": null}, "kernel_regularizer": null, "bias_regularizer": null, "activity_regularizer": null, "kernel_constraint": null, "bias_constraint": null}, "name": "conv2d_416", "inbound_nodes": [{"args": [{"class_name": "__keras_tensor__", "config": {"shape": [null, 16, 16, 64], "dtype": "float32", "keras_history": ["activation_403", 0, 0]}}], "kwargs": {}}]}, {"class_name": "BatchNormalization", "config": {"name": "batch_normalization_416", "trainable": false, "dtype": {"module": "keras", "class_name": "DTypePolicy", "config": {"name": "float32"}, "registered_name": null}, "axis": 3, "momentum": 0.99, "epsilon": 0.001, "center": true, "scale": false, "beta_initializer": {"module": "keras.initializers", "class_name": "Zeros", "config": {}, "registered_name": null}, "gamma_initializer": {"module": "keras.initializers", "class_name": "Ones", "config": {}, "registered_name": null}, "moving_mean_initializer": {"module": "keras.initializers", "class_name": "Zeros", "config": {}, "registered_name": null}, "moving_variance_initializer": {"module": "keras.initializers", "class_name": "Ones", "config": {}, "registered_name": null}, "beta_regularizer": null, "gamma_regularizer": null, "beta_constraint": null, "gamma_constraint": null, "synchronized": false}, "name": "batch_normalization_416", "inbound_nodes": [{"args": [{"class_name": "__keras_tensor__", "config": {"shape": [null, 16, 16, 96], "dtype": "float32", "keras_history": ["conv2d_416", 0, 0]}}], "kwargs": {"mask": null}}]}, {"class_name": "Activation", "config": {"name": "activation_404", "trainable": false, "dtype": {"module": "keras", "class_name": "DTypePolicy", "config": {"name": "float32"}, "registered_name": null}, "activation": "relu"}, "name": "activation_404", "inbound_nodes": [{"args": [{"class_name": "__keras_tensor__", "config": {"shape": [null, 16, 16, 96], "dtype": "float32", "keras_history": ["batch_normalization_416", 0, 0]}}], "kwargs": {}}]}, {"class_name": "Conv2D", "config": {"name": "conv2d_414", "trainable": false, "dtype": {"module": "keras", "class_name": "DTypePolicy", "config": {"name": "float32"}, "registered_name": null}, "filters": 384, "kernel_size": [3, 3], "strides": [2, 2], "padding": "valid", "data_format": "channels_last", "dilation_rate": [1, 1], "groups": 1, "activation": "linear", "use_bias": false, "kernel_initializer": {"module": "keras.initializers", "class_name": "GlorotUniform", "config": {"seed": null}, "registered_name": null}, "bias_initializer": {"module": "keras.initializers", "class_name": "Zeros", "config": {}, "registered_name": null}, "kernel_regularizer": null, "bias_regularizer": null, "activity_regularizer": null, "kernel_constraint": null, "bias_constraint": null}, "name": "conv2d_414", "inbound_nodes": [{"args": [{"class_name": "__keras_tensor__", "config": {"shape": [null, 16, 16, 288], "dtype": "float32", "keras_history": ["mixed2", 0, 0]}}], "kwargs": {}}]}, {"class_name": "Conv2D", "config": {"name": "conv2d_417", "trainable": false, "dtype": {"module": "keras", "class_name": "DTypePolicy", "config": {"name": "float32"}, "registered_name": null}, "filters": 96, "kernel_size": [3, 3], "strides": [2, 2], "padding": "valid", "data_format": "channels_last", "dilation_rate": [1, 1], "groups": 1, "activation": "linear", "use_bias": false, "kernel_initializer": {"module": "keras.initializers", "class_name": "GlorotUniform", "config": {"seed": null}, "registered_name": null}, "bias_initializer": {"module": "keras.initializers", "class_name": "Zeros", "config": {}, "registered_name": null}, "kernel_regularizer": null, "bias_regularizer": null, "activity_regularizer": null, "kernel_constraint": null, "bias_constraint": null}, "name": "conv2d_417", "inbound_nodes": [{"args": [{"class_name": "__keras_tensor__", "config": {"shape": [null, 16, 16, 96], "dtype": "float32", "keras_history": ["activation_404", 0, 0]}}], "kwargs": {}}]}, {"class_name": "BatchNormalization", "config": {"name": "batch_normalization_414", "trainable": false, "dtype": {"module": "keras", "class_name": "DTypePolicy", "config": {"name": "float32"}, "registered_name": null}, "axis": 3, "momentum": 0.99, "epsilon": 0.001, "center": true, "scale": false, "beta_initializer": {"module": "keras.initializers", "class_name": "Zeros", "config": {}, "registered_name": null}, "gamma_initializer": {"module": "keras.initializers", "class_name": "Ones", "config": {}, "registered_name": null}, "moving_mean_initializer": {"module": "keras.initializers", "class_name": "Zeros", "config": {}, "registered_name": null}, "moving_variance_initializer": {"module": "keras.initializers", "class_name": "Ones", "config": {}, "registered_name": null}, "beta_regularizer": null, "gamma_regularizer": null, "beta_constraint": null, "gamma_constraint": null, "synchronized": false}, "name": "batch_normalization_414", "inbound_nodes": [{"args": [{"class_name": "__keras_tensor__", "config": {"shape": [null, 7, 7, 384], "dtype": "float32", "keras_history": ["conv2d_414", 0, 0]}}], "kwargs": {"mask": null}}]}, {"class_name": "BatchNormalization", "config": {"name": "batch_normalization_417", "trainable": false, "dtype": {"module": "keras", "class_name": "DTypePolicy", "config": {"name": "float32"}, "registered_name": null}, "axis": 3, "momentum": 0.99, "epsilon": 0.001, "center": true, "scale": false, "beta_initializer": {"module": "keras.initializers", "class_name": "Zeros", "config": {}, "registered_name": null}, "gamma_initializer": {"module": "keras.initializers", "class_name": "Ones", "config": {}, "registered_name": null}, "moving_mean_initializer": {"module": "keras.initializers", "class_name": "Zeros", "config": {}, "registered_name": null}, "moving_variance_initializer": {"module": "keras.initializers", "class_name": "Ones", "config": {}, "registered_name": null}, "beta_regularizer": null, "gamma_regularizer": null, "beta_constraint": null, "gamma_constraint": null, "synchronized": false}, "name": "batch_normalization_417", "inbound_nodes": [{"args": [{"class_name": "__keras_tensor__", "config": {"shape": [null, 7, 7, 96], "dtype": "float32", "keras_history": ["conv2d_417", 0, 0]}}], "kwargs": {"mask": null}}]}, {"class_name": "Activation", "config": {"name": "activation_402", "trainable": false, "dtype": {"module": "keras", "class_name": "DTypePolicy", "config": {"name": "float32"}, "registered_name": null}, "activation": "relu"}, "name": "activation_402", "inbound_nodes": [{"args": [{"class_name": "__keras_tensor__", "config": {"shape": [null, 7, 7, 384], "dtype": "float32", "keras_history": ["batch_normalization_414", 0, 0]}}], "kwargs": {}}]}, {"class_name": "Activation", "config": {"name": "activation_405", "trainable": false, "dtype": {"module": "keras", "class_name": "DTypePolicy", "config": {"name": "float32"}, "registered_name": null}, "activation": "relu"}, "name": "activation_405", "inbound_nodes": [{"args": [{"class_name": "__keras_tensor__", "config": {"shape": [null, 7, 7, 96], "dtype": "float32", "keras_history": ["batch_normalization_417", 0, 0]}}], "kwargs": {}}]}, {"class_name": "MaxPooling2D", "config": {"name": "max_pooling2d_22", "trainable": false, "dtype": {"module": "keras", "class_name": "DTypePolicy", "config": {"name": "float32"}, "registered_name": null}, "pool_size": [3, 3], "padding": "valid", "strides": [2, 2], "data_format": "channels_last"}, "name": "max_pooling2d_22", "inbound_nodes": [{"args": [{"class_name": "__keras_tensor__", "config": {"shape": [null, 16, 16, 288], "dtype": "float32", "keras_history": ["mixed2", 0, 0]}}], "kwargs": {}}]}, {"class_name": "Concatenate", "config": {"name": "mixed3", "trainable": false, "dtype": {"module": "keras", "class_name": "DTypePolicy", "config": {"name": "float32"}, "registered_name": null}, "axis": 3}, "name": "mixed3", "inbound_nodes": [{"args": [[{"class_name": "__keras_tensor__", "config": {"shape": [null, 7, 7, 384], "dtype": "float32", "keras_history": ["activation_402", 0, 0]}}, {"class_name": "__keras_tensor__", "config": {"shape": [null, 7, 7, 96], "dtype": "float32", "keras_history": ["activation_405", 0, 0]}}, {"class_name": "__keras_tensor__", "config": {"shape": [null, 7, 7, 288], "dtype": "float32", "keras_history": ["max_pooling2d_22", 0, 0]}}]], "kwargs": {}}]}, {"class_name": "Conv2D", "config": {"name": "conv2d_422", "trainable": false, "dtype": {"module": "keras", "class_name": "DTypePolicy", "config": {"name": "float32"}, "registered_name": null}, "filters": 128, "kernel_size": [1, 1], "strides": [1, 1], "padding": "same", "data_format": "channels_last", "dilation_rate": [1, 1], "groups": 1, "activation": "linear", "use_bias": false, "kernel_initializer": {"module": "keras.initializers", "class_name": "GlorotUniform", "config": {"seed": null}, "registered_name": null}, "bias_initializer": {"module": "keras.initializers", "class_name": "Zeros", "config": {}, "registered_name": null}, "kernel_regularizer": null, "bias_regularizer": null, "activity_regularizer": null, "kernel_constraint": null, "bias_constraint": null}, "name": "conv2d_422", "inbound_nodes": [{"args": [{"class_name": "__keras_tensor__", "config": {"shape": [null, 7, 7, 768], "dtype": "float32", "keras_history": ["mixed3", 0, 0]}}], "kwargs": {}}]}, {"class_name": "BatchNormalization", "config": {"name": "batch_normalization_422", "trainable": false, "dtype": {"module": "keras", "class_name": "DTypePolicy", "config": {"name": "float32"}, "registered_name": null}, "axis": 3, "momentum": 0.99, "epsilon": 0.001, "center": true, "scale": false, "beta_initializer": {"module": "keras.initializers", "class_name": "Zeros", "config": {}, "registered_name": null}, "gamma_initializer": {"module": "keras.initializers", "class_name": "Ones", "config": {}, "registered_name": null}, "moving_mean_initializer": {"module": "keras.initializers", "class_name": "Zeros", "config": {}, "registered_name": null}, "moving_variance_initializer": {"module": "keras.initializers", "class_name": "Ones", "config": {}, "registered_name": null}, "beta_regularizer": null, "gamma_regularizer": null, "beta_constraint": null, "gamma_constraint": null, "synchronized": false}, "name": "batch_normalization_422", "inbound_nodes": [{"args": [{"class_name": "__keras_tensor__", "config": {"shape": [null, 7, 7, 128], "dtype": "float32", "keras_history": ["conv2d_422", 0, 0]}}], "kwargs": {"mask": null}}]}, {"class_name": "Activation", "config": {"name": "activation_410", "trainable": false, "dtype": {"module": "keras", "class_name": "DTypePolicy", "config": {"name": "float32"}, "registered_name": null}, "activation": "relu"}, "name": "activation_410", "inbound_nodes": [{"args": [{"class_name": "__keras_tensor__", "config": {"shape": [null, 7, 7, 128], "dtype": "float32", "keras_history": ["batch_normalization_422", 0, 0]}}], "kwargs": {}}]}, {"class_name": "Conv2D", "config": {"name": "conv2d_423", "trainable": false, "dtype": {"module": "keras", "class_name": "DTypePolicy", "config": {"name": "float32"}, "registered_name": null}, "filters": 128, "kernel_size": [7, 1], "strides": [1, 1], "padding": "same", "data_format": "channels_last", "dilation_rate": [1, 1], "groups": 1, "activation": "linear", "use_bias": false, "kernel_initializer": {"module": "keras.initializers", "class_name": "GlorotUniform", "config": {"seed": null}, "registered_name": null}, "bias_initializer": {"module": "keras.initializers", "class_name": "Zeros", "config": {}, "registered_name": null}, "kernel_regularizer": null, "bias_regularizer": null, "activity_regularizer": null, "kernel_constraint": null, "bias_constraint": null}, "name": "conv2d_423", "inbound_nodes": [{"args": [{"class_name": "__keras_tensor__", "config": {"shape": [null, 7, 7, 128], "dtype": "float32", "keras_history": ["activation_410", 0, 0]}}], "kwargs": {}}]}, {"class_name": "BatchNormalization", "config": {"name": "batch_normalization_423", "trainable": false, "dtype": {"module": "keras", "class_name": "DTypePolicy", "config": {"name": "float32"}, "registered_name": null}, "axis": 3, "momentum": 0.99, "epsilon": 0.001, "center": true, "scale": false, "beta_initializer": {"module": "keras.initializers", "class_name": "Zeros", "config": {}, "registered_name": null}, "gamma_initializer": {"module": "keras.initializers", "class_name": "Ones", "config": {}, "registered_name": null}, "moving_mean_initializer": {"module": "keras.initializers", "class_name": "Zeros", "config": {}, "registered_name": null}, "moving_variance_initializer": {"module": "keras.initializers", "class_name": "Ones", "config": {}, "registered_name": null}, "beta_regularizer": null, "gamma_regularizer": null, "beta_constraint": null, "gamma_constraint": null, "synchronized": false}, "name": "batch_normalization_423", "inbound_nodes": [{"args": [{"class_name": "__keras_tensor__", "config": {"shape": [null, 7, 7, 128], "dtype": "float32", "keras_history": ["conv2d_423", 0, 0]}}], "kwargs": {"mask": null}}]}, {"class_name": "Activation", "config": {"name": "activation_411", "trainable": false, "dtype": {"module": "keras", "class_name": "DTypePolicy", "config": {"name": "float32"}, "registered_name": null}, "activation": "relu"}, "name": "activation_411", "inbound_nodes": [{"args": [{"class_name": "__keras_tensor__", "config": {"shape": [null, 7, 7, 128], "dtype": "float32", "keras_history": ["batch_normalization_423", 0, 0]}}], "kwargs": {}}]}, {"class_name": "Conv2D", "config": {"name": "conv2d_419", "trainable": false, "dtype": {"module": "keras", "class_name": "DTypePolicy", "config": {"name": "float32"}, "registered_name": null}, "filters": 128, "kernel_size": [1, 1], "strides": [1, 1], "padding": "same", "data_format": "channels_last", "dilation_rate": [1, 1], "groups": 1, "activation": "linear", "use_bias": false, "kernel_initializer": {"module": "keras.initializers", "class_name": "GlorotUniform", "config": {"seed": null}, "registered_name": null}, "bias_initializer": {"module": "keras.initializers", "class_name": "Zeros", "config": {}, "registered_name": null}, "kernel_regularizer": null, "bias_regularizer": null, "activity_regularizer": null, "kernel_constraint": null, "bias_constraint": null}, "name": "conv2d_419", "inbound_nodes": [{"args": [{"class_name": "__keras_tensor__", "config": {"shape": [null, 7, 7, 768], "dtype": "float32", "keras_history": ["mixed3", 0, 0]}}], "kwargs": {}}]}, {"class_name": "Conv2D", "config": {"name": "conv2d_424", "trainable": false, "dtype": {"module": "keras", "class_name": "DTypePolicy", "config": {"name": "float32"}, "registered_name": null}, "filters": 128, "kernel_size": [1, 7], "strides": [1, 1], "padding": "same", "data_format": "channels_last", "dilation_rate": [1, 1], "groups": 1, "activation": "linear", "use_bias": false, "kernel_initializer": {"module": "keras.initializers", "class_name": "GlorotUniform", "config": {"seed": null}, "registered_name": null}, "bias_initializer": {"module": "keras.initializers", "class_name": "Zeros", "config": {}, "registered_name": null}, "kernel_regularizer": null, "bias_regularizer": null, "activity_regularizer": null, "kernel_constraint": null, "bias_constraint": null}, "name": "conv2d_424", "inbound_nodes": [{"args": [{"class_name": "__keras_tensor__", "config": {"shape": [null, 7, 7, 128], "dtype": "float32", "keras_history": ["activation_411", 0, 0]}}], "kwargs": {}}]}, {"class_name": "BatchNormalization", "config": {"name": "batch_normalization_419", "trainable": false, "dtype": {"module": "keras", "class_name": "DTypePolicy", "config": {"name": "float32"}, "registered_name": null}, "axis": 3, "momentum": 0.99, "epsilon": 0.001, "center": true, "scale": false, "beta_initializer": {"module": "keras.initializers", "class_name": "Zeros", "config": {}, "registered_name": null}, "gamma_initializer": {"module": "keras.initializers", "class_name": "Ones", "config": {}, "registered_name": null}, "moving_mean_initializer": {"module": "keras.initializers", "class_name": "Zeros", "config": {}, "registered_name": null}, "moving_variance_initializer": {"module": "keras.initializers", "class_name": "Ones", "config": {}, "registered_name": null}, "beta_regularizer": null, "gamma_regularizer": null, "beta_constraint": null, "gamma_constraint": null, "synchronized": false}, "name": "batch_normalization_419", "inbound_nodes": [{"args": [{"class_name": "__keras_tensor__", "config": {"shape": [null, 7, 7, 128], "dtype": "float32", "keras_history": ["conv2d_419", 0, 0]}}], "kwargs": {"mask": null}}]}, {"class_name": "BatchNormalization", "config": {"name": "batch_normalization_424", "trainable": false, "dtype": {"module": "keras", "class_name": "DTypePolicy", "config": {"name": "float32"}, "registered_name": null}, "axis": 3, "momentum": 0.99, "epsilon": 0.001, "center": true, "scale": false, "beta_initializer": {"module": "keras.initializers", "class_name": "Zeros", "config": {}, "registered_name": null}, "gamma_initializer": {"module": "keras.initializers", "class_name": "Ones", "config": {}, "registered_name": null}, "moving_mean_initializer": {"module": "keras.initializers", "class_name": "Zeros", "config": {}, "registered_name": null}, "moving_variance_initializer": {"module": "keras.initializers", "class_name": "Ones", "config": {}, "registered_name": null}, "beta_regularizer": null, "gamma_regularizer": null, "beta_constraint": null, "gamma_constraint": null, "synchronized": false}, "name": "batch_normalization_424", "inbound_nodes": [{"args": [{"class_name": "__keras_tensor__", "config": {"shape": [null, 7, 7, 128], "dtype": "float32", "keras_history": ["conv2d_424", 0, 0]}}], "kwargs": {"mask": null}}]}, {"class_name": "Activation", "config": {"name": "activation_407", "trainable": false, "dtype": {"module": "keras", "class_name": "DTypePolicy", "config": {"name": "float32"}, "registered_name": null}, "activation": "relu"}, "name": "activation_407", "inbound_nodes": [{"args": [{"class_name": "__keras_tensor__", "config": {"shape": [null, 7, 7, 128], "dtype": "float32", "keras_history": ["batch_normalization_419", 0, 0]}}], "kwargs": {}}]}, {"class_name": "Activation", "config": {"name": "activation_412", "trainable": false, "dtype": {"module": "keras", "class_name": "DTypePolicy", "config": {"name": "float32"}, "registered_name": null}, "activation": "relu"}, "name": "activation_412", "inbound_nodes": [{"args": [{"class_name": "__keras_tensor__", "config": {"shape": [null, 7, 7, 128], "dtype": "float32", "keras_history": ["batch_normalization_424", 0, 0]}}], "kwargs": {}}]}, {"class_name": "Conv2D", "config": {"name": "conv2d_420", "trainable": false, "dtype": {"module": "keras", "class_name": "DTypePolicy", "config": {"name": "float32"}, "registered_name": null}, "filters": 128, "kernel_size": [1, 7], "strides": [1, 1], "padding": "same", "data_format": "channels_last", "dilation_rate": [1, 1], "groups": 1, "activation": "linear", "use_bias": false, "kernel_initializer": {"module": "keras.initializers", "class_name": "GlorotUniform", "config": {"seed": null}, "registered_name": null}, "bias_initializer": {"module": "keras.initializers", "class_name": "Zeros", "config": {}, "registered_name": null}, "kernel_regularizer": null, "bias_regularizer": null, "activity_regularizer": null, "kernel_constraint": null, "bias_constraint": null}, "name": "conv2d_420", "inbound_nodes": [{"args": [{"class_name": "__keras_tensor__", "config": {"shape": [null, 7, 7, 128], "dtype": "float32", "keras_history": ["activation_407", 0, 0]}}], "kwargs": {}}]}, {"class_name": "Conv2D", "config": {"name": "conv2d_425", "trainable": false, "dtype": {"module": "keras", "class_name": "DTypePolicy", "config": {"name": "float32"}, "registered_name": null}, "filters": 128, "kernel_size": [7, 1], "strides": [1, 1], "padding": "same", "data_format": "channels_last", "dilation_rate": [1, 1], "groups": 1, "activation": "linear", "use_bias": false, "kernel_initializer": {"module": "keras.initializers", "class_name": "GlorotUniform", "config": {"seed": null}, "registered_name": null}, "bias_initializer": {"module": "keras.initializers", "class_name": "Zeros", "config": {}, "registered_name": null}, "kernel_regularizer": null, "bias_regularizer": null, "activity_regularizer": null, "kernel_constraint": null, "bias_constraint": null}, "name": "conv2d_425", "inbound_nodes": [{"args": [{"class_name": "__keras_tensor__", "config": {"shape": [null, 7, 7, 128], "dtype": "float32", "keras_history": ["activation_412", 0, 0]}}], "kwargs": {}}]}, {"class_name": "BatchNormalization", "config": {"name": "batch_normalization_420", "trainable": false, "dtype": {"module": "keras", "class_name": "DTypePolicy", "config": {"name": "float32"}, "registered_name": null}, "axis": 3, "momentum": 0.99, "epsilon": 0.001, "center": true, "scale": false, "beta_initializer": {"module": "keras.initializers", "class_name": "Zeros", "config": {}, "registered_name": null}, "gamma_initializer": {"module": "keras.initializers", "class_name": "Ones", "config": {}, "registered_name": null}, "moving_mean_initializer": {"module": "keras.initializers", "class_name": "Zeros", "config": {}, "registered_name": null}, "moving_variance_initializer": {"module": "keras.initializers", "class_name": "Ones", "config": {}, "registered_name": null}, "beta_regularizer": null, "gamma_regularizer": null, "beta_constraint": null, "gamma_constraint": null, "synchronized": false}, "name": "batch_normalization_420", "inbound_nodes": [{"args": [{"class_name": "__keras_tensor__", "config": {"shape": [null, 7, 7, 128], "dtype": "float32", "keras_history": ["conv2d_420", 0, 0]}}], "kwargs": {"mask": null}}]}, {"class_name": "BatchNormalization", "config": {"name": "batch_normalization_425", "trainable": false, "dtype": {"module": "keras", "class_name": "DTypePolicy", "config": {"name": "float32"}, "registered_name": null}, "axis": 3, "momentum": 0.99, "epsilon": 0.001, "center": true, "scale": false, "beta_initializer": {"module": "keras.initializers", "class_name": "Zeros", "config": {}, "registered_name": null}, "gamma_initializer": {"module": "keras.initializers", "class_name": "Ones", "config": {}, "registered_name": null}, "moving_mean_initializer": {"module": "keras.initializers", "class_name": "Zeros", "config": {}, "registered_name": null}, "moving_variance_initializer": {"module": "keras.initializers", "class_name": "Ones", "config": {}, "registered_name": null}, "beta_regularizer": null, "gamma_regularizer": null, "beta_constraint": null, "gamma_constraint": null, "synchronized": false}, "name": "batch_normalization_425", "inbound_nodes": [{"args": [{"class_name": "__keras_tensor__", "config": {"shape": [null, 7, 7, 128], "dtype": "float32", "keras_history": ["conv2d_425", 0, 0]}}], "kwargs": {"mask": null}}]}, {"class_name": "Activation", "config": {"name": "activation_408", "trainable": false, "dtype": {"module": "keras", "class_name": "DTypePolicy", "config": {"name": "float32"}, "registered_name": null}, "activation": "relu"}, "name": "activation_408", "inbound_nodes": [{"args": [{"class_name": "__keras_tensor__", "config": {"shape": [null, 7, 7, 128], "dtype": "float32", "keras_history": ["batch_normalization_420", 0, 0]}}], "kwargs": {}}]}, {"class_name": "Activation", "config": {"name": "activation_413", "trainable": false, "dtype": {"module": "keras", "class_name": "DTypePolicy", "config": {"name": "float32"}, "registered_name": null}, "activation": "relu"}, "name": "activation_413", "inbound_nodes": [{"args": [{"class_name": "__keras_tensor__", "config": {"shape": [null, 7, 7, 128], "dtype": "float32", "keras_history": ["batch_normalization_425", 0, 0]}}], "kwargs": {}}]}, {"class_name": "AveragePooling2D", "config": {"name": "average_pooling2d_39", "trainable": false, "dtype": {"module": "keras", "class_name": "DTypePolicy", "config": {"name": "float32"}, "registered_name": null}, "pool_size": [3, 3], "padding": "same", "strides": [1, 1], "data_format": "channels_last"}, "name": "average_pooling2d_39", "inbound_nodes": [{"args": [{"class_name": "__keras_tensor__", "config": {"shape": [null, 7, 7, 768], "dtype": "float32", "keras_history": ["mixed3", 0, 0]}}], "kwargs": {}}]}, {"class_name": "Conv2D", "config": {"name": "conv2d_418", "trainable": false, "dtype": {"module": "keras", "class_name": "DTypePolicy", "config": {"name": "float32"}, "registered_name": null}, "filters": 192, "kernel_size": [1, 1], "strides": [1, 1], "padding": "same", "data_format": "channels_last", "dilation_rate": [1, 1], "groups": 1, "activation": "linear", "use_bias": false, "kernel_initializer": {"module": "keras.initializers", "class_name": "GlorotUniform", "config": {"seed": null}, "registered_name": null}, "bias_initializer": {"module": "keras.initializers", "class_name": "Zeros", "config": {}, "registered_name": null}, "kernel_regularizer": null, "bias_regularizer": null, "activity_regularizer": null, "kernel_constraint": null, "bias_constraint": null}, "name": "conv2d_418", "inbound_nodes": [{"args": [{"class_name": "__keras_tensor__", "config": {"shape": [null, 7, 7, 768], "dtype": "float32", "keras_history": ["mixed3", 0, 0]}}], "kwargs": {}}]}, {"class_name": "Conv2D", "config": {"name": "conv2d_421", "trainable": false, "dtype": {"module": "keras", "class_name": "DTypePolicy", "config": {"name": "float32"}, "registered_name": null}, "filters": 192, "kernel_size": [7, 1], "strides": [1, 1], "padding": "same", "data_format": "channels_last", "dilation_rate": [1, 1], "groups": 1, "activation": "linear", "use_bias": false, "kernel_initializer": {"module": "keras.initializers", "class_name": "GlorotUniform", "config": {"seed": null}, "registered_name": null}, "bias_initializer": {"module": "keras.initializers", "class_name": "Zeros", "config": {}, "registered_name": null}, "kernel_regularizer": null, "bias_regularizer": null, "activity_regularizer": null, "kernel_constraint": null, "bias_constraint": null}, "name": "conv2d_421", "inbound_nodes": [{"args": [{"class_name": "__keras_tensor__", "config": {"shape": [null, 7, 7, 128], "dtype": "float32", "keras_history": ["activation_408", 0, 0]}}], "kwargs": {}}]}, {"class_name": "Conv2D", "config": {"name": "conv2d_426", "trainable": false, "dtype": {"module": "keras", "class_name": "DTypePolicy", "config": {"name": "float32"}, "registered_name": null}, "filters": 192, "kernel_size": [1, 7], "strides": [1, 1], "padding": "same", "data_format": "channels_last", "dilation_rate": [1, 1], "groups": 1, "activation": "linear", "use_bias": false, "kernel_initializer": {"module": "keras.initializers", "class_name": "GlorotUniform", "config": {"seed": null}, "registered_name": null}, "bias_initializer": {"module": "keras.initializers", "class_name": "Zeros", "config": {}, "registered_name": null}, "kernel_regularizer": null, "bias_regularizer": null, "activity_regularizer": null, "kernel_constraint": null, "bias_constraint": null}, "name": "conv2d_426", "inbound_nodes": [{"args": [{"class_name": "__keras_tensor__", "config": {"shape": [null, 7, 7, 128], "dtype": "float32", "keras_history": ["activation_413", 0, 0]}}], "kwargs": {}}]}, {"class_name": "Conv2D", "config": {"name": "conv2d_427", "trainable": false, "dtype": {"module": "keras", "class_name": "DTypePolicy", "config": {"name": "float32"}, "registered_name": null}, "filters": 192, "kernel_size": [1, 1], "strides": [1, 1], "padding": "same", "data_format": "channels_last", "dilation_rate": [1, 1], "groups": 1, "activation": "linear", "use_bias": false, "kernel_initializer": {"module": "keras.initializers", "class_name": "GlorotUniform", "config": {"seed": null}, "registered_name": null}, "bias_initializer": {"module": "keras.initializers", "class_name": "Zeros", "config": {}, "registered_name": null}, "kernel_regularizer": null, "bias_regularizer": null, "activity_regularizer": null, "kernel_constraint": null, "bias_constraint": null}, "name": "conv2d_427", "inbound_nodes": [{"args": [{"class_name": "__keras_tensor__", "config": {"shape": [null, 7, 7, 768], "dtype": "float32", "keras_history": ["average_pooling2d_39", 0, 0]}}], "kwargs": {}}]}, {"class_name": "BatchNormalization", "config": {"name": "batch_normalization_418", "trainable": false, "dtype": {"module": "keras", "class_name": "DTypePolicy", "config": {"name": "float32"}, "registered_name": null}, "axis": 3, "momentum": 0.99, "epsilon": 0.001, "center": true, "scale": false, "beta_initializer": {"module": "keras.initializers", "class_name": "Zeros", "config": {}, "registered_name": null}, "gamma_initializer": {"module": "keras.initializers", "class_name": "Ones", "config": {}, "registered_name": null}, "moving_mean_initializer": {"module": "keras.initializers", "class_name": "Zeros", "config": {}, "registered_name": null}, "moving_variance_initializer": {"module": "keras.initializers", "class_name": "Ones", "config": {}, "registered_name": null}, "beta_regularizer": null, "gamma_regularizer": null, "beta_constraint": null, "gamma_constraint": null, "synchronized": false}, "name": "batch_normalization_418", "inbound_nodes": [{"args": [{"class_name": "__keras_tensor__", "config": {"shape": [null, 7, 7, 192], "dtype": "float32", "keras_history": ["conv2d_418", 0, 0]}}], "kwargs": {"mask": null}}]}, {"class_name": "BatchNormalization", "config": {"name": "batch_normalization_421", "trainable": false, "dtype": {"module": "keras", "class_name": "DTypePolicy", "config": {"name": "float32"}, "registered_name": null}, "axis": 3, "momentum": 0.99, "epsilon": 0.001, "center": true, "scale": false, "beta_initializer": {"module": "keras.initializers", "class_name": "Zeros", "config": {}, "registered_name": null}, "gamma_initializer": {"module": "keras.initializers", "class_name": "Ones", "config": {}, "registered_name": null}, "moving_mean_initializer": {"module": "keras.initializers", "class_name": "Zeros", "config": {}, "registered_name": null}, "moving_variance_initializer": {"module": "keras.initializers", "class_name": "Ones", "config": {}, "registered_name": null}, "beta_regularizer": null, "gamma_regularizer": null, "beta_constraint": null, "gamma_constraint": null, "synchronized": false}, "name": "batch_normalization_421", "inbound_nodes": [{"args": [{"class_name": "__keras_tensor__", "config": {"shape": [null, 7, 7, 192], "dtype": "float32", "keras_history": ["conv2d_421", 0, 0]}}], "kwargs": {"mask": null}}]}, {"class_name": "BatchNormalization", "config": {"name": "batch_normalization_426", "trainable": false, "dtype": {"module": "keras", "class_name": "DTypePolicy", "config": {"name": "float32"}, "registered_name": null}, "axis": 3, "momentum": 0.99, "epsilon": 0.001, "center": true, "scale": false, "beta_initializer": {"module": "keras.initializers", "class_name": "Zeros", "config": {}, "registered_name": null}, "gamma_initializer": {"module": "keras.initializers", "class_name": "Ones", "config": {}, "registered_name": null}, "moving_mean_initializer": {"module": "keras.initializers", "class_name": "Zeros", "config": {}, "registered_name": null}, "moving_variance_initializer": {"module": "keras.initializers", "class_name": "Ones", "config": {}, "registered_name": null}, "beta_regularizer": null, "gamma_regularizer": null, "beta_constraint": null, "gamma_constraint": null, "synchronized": false}, "name": "batch_normalization_426", "inbound_nodes": [{"args": [{"class_name": "__keras_tensor__", "config": {"shape": [null, 7, 7, 192], "dtype": "float32", "keras_history": ["conv2d_426", 0, 0]}}], "kwargs": {"mask": null}}]}, {"class_name": "BatchNormalization", "config": {"name": "batch_normalization_427", "trainable": false, "dtype": {"module": "keras", "class_name": "DTypePolicy", "config": {"name": "float32"}, "registered_name": null}, "axis": 3, "momentum": 0.99, "epsilon": 0.001, "center": true, "scale": false, "beta_initializer": {"module": "keras.initializers", "class_name": "Zeros", "config": {}, "registered_name": null}, "gamma_initializer": {"module": "keras.initializers", "class_name": "Ones", "config": {}, "registered_name": null}, "moving_mean_initializer": {"module": "keras.initializers", "class_name": "Zeros", "config": {}, "registered_name": null}, "moving_variance_initializer": {"module": "keras.initializers", "class_name": "Ones", "config": {}, "registered_name": null}, "beta_regularizer": null, "gamma_regularizer": null, "beta_constraint": null, "gamma_constraint": null, "synchronized": false}, "name": "batch_normalization_427", "inbound_nodes": [{"args": [{"class_name": "__keras_tensor__", "config": {"shape": [null, 7, 7, 192], "dtype": "float32", "keras_history": ["conv2d_427", 0, 0]}}], "kwargs": {"mask": null}}]}, {"class_name": "Activation", "config": {"name": "activation_406", "trainable": false, "dtype": {"module": "keras", "class_name": "DTypePolicy", "config": {"name": "float32"}, "registered_name": null}, "activation": "relu"}, "name": "activation_406", "inbound_nodes": [{"args": [{"class_name": "__keras_tensor__", "config": {"shape": [null, 7, 7, 192], "dtype": "float32", "keras_history": ["batch_normalization_418", 0, 0]}}], "kwargs": {}}]}, {"class_name": "Activation", "config": {"name": "activation_409", "trainable": false, "dtype": {"module": "keras", "class_name": "DTypePolicy", "config": {"name": "float32"}, "registered_name": null}, "activation": "relu"}, "name": "activation_409", "inbound_nodes": [{"args": [{"class_name": "__keras_tensor__", "config": {"shape": [null, 7, 7, 192], "dtype": "float32", "keras_history": ["batch_normalization_421", 0, 0]}}], "kwargs": {}}]}, {"class_name": "Activation", "config": {"name": "activation_414", "trainable": false, "dtype": {"module": "keras", "class_name": "DTypePolicy", "config": {"name": "float32"}, "registered_name": null}, "activation": "relu"}, "name": "activation_414", "inbound_nodes": [{"args": [{"class_name": "__keras_tensor__", "config": {"shape": [null, 7, 7, 192], "dtype": "float32", "keras_history": ["batch_normalization_426", 0, 0]}}], "kwargs": {}}]}, {"class_name": "Activation", "config": {"name": "activation_415", "trainable": false, "dtype": {"module": "keras", "class_name": "DTypePolicy", "config": {"name": "float32"}, "registered_name": null}, "activation": "relu"}, "name": "activation_415", "inbound_nodes": [{"args": [{"class_name": "__keras_tensor__", "config": {"shape": [null, 7, 7, 192], "dtype": "float32", "keras_history": ["batch_normalization_427", 0, 0]}}], "kwargs": {}}]}, {"class_name": "Concatenate", "config": {"name": "mixed4", "trainable": false, "dtype": {"module": "keras", "class_name": "DTypePolicy", "config": {"name": "float32"}, "registered_name": null}, "axis": 3}, "name": "mixed4", "inbound_nodes": [{"args": [[{"class_name": "__keras_tensor__", "config": {"shape": [null, 7, 7, 192], "dtype": "float32", "keras_history": ["activation_406", 0, 0]}}, {"class_name": "__keras_tensor__", "config": {"shape": [null, 7, 7, 192], "dtype": "float32", "keras_history": ["activation_409", 0, 0]}}, {"class_name": "__keras_tensor__", "config": {"shape": [null, 7, 7, 192], "dtype": "float32", "keras_history": ["activation_414", 0, 0]}}, {"class_name": "__keras_tensor__", "config": {"shape": [null, 7, 7, 192], "dtype": "float32", "keras_history": ["activation_415", 0, 0]}}]], "kwargs": {}}]}, {"class_name": "Conv2D", "config": {"name": "conv2d_432", "trainable": false, "dtype": {"module": "keras", "class_name": "DTypePolicy", "config": {"name": "float32"}, "registered_name": null}, "filters": 160, "kernel_size": [1, 1], "strides": [1, 1], "padding": "same", "data_format": "channels_last", "dilation_rate": [1, 1], "groups": 1, "activation": "linear", "use_bias": false, "kernel_initializer": {"module": "keras.initializers", "class_name": "GlorotUniform", "config": {"seed": null}, "registered_name": null}, "bias_initializer": {"module": "keras.initializers", "class_name": "Zeros", "config": {}, "registered_name": null}, "kernel_regularizer": null, "bias_regularizer": null, "activity_regularizer": null, "kernel_constraint": null, "bias_constraint": null}, "name": "conv2d_432", "inbound_nodes": [{"args": [{"class_name": "__keras_tensor__", "config": {"shape": [null, 7, 7, 768], "dtype": "float32", "keras_history": ["mixed4", 0, 0]}}], "kwargs": {}}]}, {"class_name": "BatchNormalization", "config": {"name": "batch_normalization_432", "trainable": false, "dtype": {"module": "keras", "class_name": "DTypePolicy", "config": {"name": "float32"}, "registered_name": null}, "axis": 3, "momentum": 0.99, "epsilon": 0.001, "center": true, "scale": false, "beta_initializer": {"module": "keras.initializers", "class_name": "Zeros", "config": {}, "registered_name": null}, "gamma_initializer": {"module": "keras.initializers", "class_name": "Ones", "config": {}, "registered_name": null}, "moving_mean_initializer": {"module": "keras.initializers", "class_name": "Zeros", "config": {}, "registered_name": null}, "moving_variance_initializer": {"module": "keras.initializers", "class_name": "Ones", "config": {}, "registered_name": null}, "beta_regularizer": null, "gamma_regularizer": null, "beta_constraint": null, "gamma_constraint": null, "synchronized": false}, "name": "batch_normalization_432", "inbound_nodes": [{"args": [{"class_name": "__keras_tensor__", "config": {"shape": [null, 7, 7, 160], "dtype": "float32", "keras_history": ["conv2d_432", 0, 0]}}], "kwargs": {"mask": null}}]}, {"class_name": "Activation", "config": {"name": "activation_420", "trainable": false, "dtype": {"module": "keras", "class_name": "DTypePolicy", "config": {"name": "float32"}, "registered_name": null}, "activation": "relu"}, "name": "activation_420", "inbound_nodes": [{"args": [{"class_name": "__keras_tensor__", "config": {"shape": [null, 7, 7, 160], "dtype": "float32", "keras_history": ["batch_normalization_432", 0, 0]}}], "kwargs": {}}]}, {"class_name": "Conv2D", "config": {"name": "conv2d_433", "trainable": false, "dtype": {"module": "keras", "class_name": "DTypePolicy", "config": {"name": "float32"}, "registered_name": null}, "filters": 160, "kernel_size": [7, 1], "strides": [1, 1], "padding": "same", "data_format": "channels_last", "dilation_rate": [1, 1], "groups": 1, "activation": "linear", "use_bias": false, "kernel_initializer": {"module": "keras.initializers", "class_name": "GlorotUniform", "config": {"seed": null}, "registered_name": null}, "bias_initializer": {"module": "keras.initializers", "class_name": "Zeros", "config": {}, "registered_name": null}, "kernel_regularizer": null, "bias_regularizer": null, "activity_regularizer": null, "kernel_constraint": null, "bias_constraint": null}, "name": "conv2d_433", "inbound_nodes": [{"args": [{"class_name": "__keras_tensor__", "config": {"shape": [null, 7, 7, 160], "dtype": "float32", "keras_history": ["activation_420", 0, 0]}}], "kwargs": {}}]}, {"class_name": "BatchNormalization", "config": {"name": "batch_normalization_433", "trainable": false, "dtype": {"module": "keras", "class_name": "DTypePolicy", "config": {"name": "float32"}, "registered_name": null}, "axis": 3, "momentum": 0.99, "epsilon": 0.001, "center": true, "scale": false, "beta_initializer": {"module": "keras.initializers", "class_name": "Zeros", "config": {}, "registered_name": null}, "gamma_initializer": {"module": "keras.initializers", "class_name": "Ones", "config": {}, "registered_name": null}, "moving_mean_initializer": {"module": "keras.initializers", "class_name": "Zeros", "config": {}, "registered_name": null}, "moving_variance_initializer": {"module": "keras.initializers", "class_name": "Ones", "config": {}, "registered_name": null}, "beta_regularizer": null, "gamma_regularizer": null, "beta_constraint": null, "gamma_constraint": null, "synchronized": false}, "name": "batch_normalization_433", "inbound_nodes": [{"args": [{"class_name": "__keras_tensor__", "config": {"shape": [null, 7, 7, 160], "dtype": "float32", "keras_history": ["conv2d_433", 0, 0]}}], "kwargs": {"mask": null}}]}, {"class_name": "Activation", "config": {"name": "activation_421", "trainable": false, "dtype": {"module": "keras", "class_name": "DTypePolicy", "config": {"name": "float32"}, "registered_name": null}, "activation": "relu"}, "name": "activation_421", "inbound_nodes": [{"args": [{"class_name": "__keras_tensor__", "config": {"shape": [null, 7, 7, 160], "dtype": "float32", "keras_history": ["batch_normalization_433", 0, 0]}}], "kwargs": {}}]}, {"class_name": "Conv2D", "config": {"name": "conv2d_429", "trainable": false, "dtype": {"module": "keras", "class_name": "DTypePolicy", "config": {"name": "float32"}, "registered_name": null}, "filters": 160, "kernel_size": [1, 1], "strides": [1, 1], "padding": "same", "data_format": "channels_last", "dilation_rate": [1, 1], "groups": 1, "activation": "linear", "use_bias": false, "kernel_initializer": {"module": "keras.initializers", "class_name": "GlorotUniform", "config": {"seed": null}, "registered_name": null}, "bias_initializer": {"module": "keras.initializers", "class_name": "Zeros", "config": {}, "registered_name": null}, "kernel_regularizer": null, "bias_regularizer": null, "activity_regularizer": null, "kernel_constraint": null, "bias_constraint": null}, "name": "conv2d_429", "inbound_nodes": [{"args": [{"class_name": "__keras_tensor__", "config": {"shape": [null, 7, 7, 768], "dtype": "float32", "keras_history": ["mixed4", 0, 0]}}], "kwargs": {}}]}, {"class_name": "Conv2D", "config": {"name": "conv2d_434", "trainable": false, "dtype": {"module": "keras", "class_name": "DTypePolicy", "config": {"name": "float32"}, "registered_name": null}, "filters": 160, "kernel_size": [1, 7], "strides": [1, 1], "padding": "same", "data_format": "channels_last", "dilation_rate": [1, 1], "groups": 1, "activation": "linear", "use_bias": false, "kernel_initializer": {"module": "keras.initializers", "class_name": "GlorotUniform", "config": {"seed": null}, "registered_name": null}, "bias_initializer": {"module": "keras.initializers", "class_name": "Zeros", "config": {}, "registered_name": null}, "kernel_regularizer": null, "bias_regularizer": null, "activity_regularizer": null, "kernel_constraint": null, "bias_constraint": null}, "name": "conv2d_434", "inbound_nodes": [{"args": [{"class_name": "__keras_tensor__", "config": {"shape": [null, 7, 7, 160], "dtype": "float32", "keras_history": ["activation_421", 0, 0]}}], "kwargs": {}}]}, {"class_name": "BatchNormalization", "config": {"name": "batch_normalization_429", "trainable": false, "dtype": {"module": "keras", "class_name": "DTypePolicy", "config": {"name": "float32"}, "registered_name": null}, "axis": 3, "momentum": 0.99, "epsilon": 0.001, "center": true, "scale": false, "beta_initializer": {"module": "keras.initializers", "class_name": "Zeros", "config": {}, "registered_name": null}, "gamma_initializer": {"module": "keras.initializers", "class_name": "Ones", "config": {}, "registered_name": null}, "moving_mean_initializer": {"module": "keras.initializers", "class_name": "Zeros", "config": {}, "registered_name": null}, "moving_variance_initializer": {"module": "keras.initializers", "class_name": "Ones", "config": {}, "registered_name": null}, "beta_regularizer": null, "gamma_regularizer": null, "beta_constraint": null, "gamma_constraint": null, "synchronized": false}, "name": "batch_normalization_429", "inbound_nodes": [{"args": [{"class_name": "__keras_tensor__", "config": {"shape": [null, 7, 7, 160], "dtype": "float32", "keras_history": ["conv2d_429", 0, 0]}}], "kwargs": {"mask": null}}]}, {"class_name": "BatchNormalization", "config": {"name": "batch_normalization_434", "trainable": false, "dtype": {"module": "keras", "class_name": "DTypePolicy", "config": {"name": "float32"}, "registered_name": null}, "axis": 3, "momentum": 0.99, "epsilon": 0.001, "center": true, "scale": false, "beta_initializer": {"module": "keras.initializers", "class_name": "Zeros", "config": {}, "registered_name": null}, "gamma_initializer": {"module": "keras.initializers", "class_name": "Ones", "config": {}, "registered_name": null}, "moving_mean_initializer": {"module": "keras.initializers", "class_name": "Zeros", "config": {}, "registered_name": null}, "moving_variance_initializer": {"module": "keras.initializers", "class_name": "Ones", "config": {}, "registered_name": null}, "beta_regularizer": null, "gamma_regularizer": null, "beta_constraint": null, "gamma_constraint": null, "synchronized": false}, "name": "batch_normalization_434", "inbound_nodes": [{"args": [{"class_name": "__keras_tensor__", "config": {"shape": [null, 7, 7, 160], "dtype": "float32", "keras_history": ["conv2d_434", 0, 0]}}], "kwargs": {"mask": null}}]}, {"class_name": "Activation", "config": {"name": "activation_417", "trainable": false, "dtype": {"module": "keras", "class_name": "DTypePolicy", "config": {"name": "float32"}, "registered_name": null}, "activation": "relu"}, "name": "activation_417", "inbound_nodes": [{"args": [{"class_name": "__keras_tensor__", "config": {"shape": [null, 7, 7, 160], "dtype": "float32", "keras_history": ["batch_normalization_429", 0, 0]}}], "kwargs": {}}]}, {"class_name": "Activation", "config": {"name": "activation_422", "trainable": false, "dtype": {"module": "keras", "class_name": "DTypePolicy", "config": {"name": "float32"}, "registered_name": null}, "activation": "relu"}, "name": "activation_422", "inbound_nodes": [{"args": [{"class_name": "__keras_tensor__", "config": {"shape": [null, 7, 7, 160], "dtype": "float32", "keras_history": ["batch_normalization_434", 0, 0]}}], "kwargs": {}}]}, {"class_name": "Conv2D", "config": {"name": "conv2d_430", "trainable": false, "dtype": {"module": "keras", "class_name": "DTypePolicy", "config": {"name": "float32"}, "registered_name": null}, "filters": 160, "kernel_size": [1, 7], "strides": [1, 1], "padding": "same", "data_format": "channels_last", "dilation_rate": [1, 1], "groups": 1, "activation": "linear", "use_bias": false, "kernel_initializer": {"module": "keras.initializers", "class_name": "GlorotUniform", "config": {"seed": null}, "registered_name": null}, "bias_initializer": {"module": "keras.initializers", "class_name": "Zeros", "config": {}, "registered_name": null}, "kernel_regularizer": null, "bias_regularizer": null, "activity_regularizer": null, "kernel_constraint": null, "bias_constraint": null}, "name": "conv2d_430", "inbound_nodes": [{"args": [{"class_name": "__keras_tensor__", "config": {"shape": [null, 7, 7, 160], "dtype": "float32", "keras_history": ["activation_417", 0, 0]}}], "kwargs": {}}]}, {"class_name": "Conv2D", "config": {"name": "conv2d_435", "trainable": false, "dtype": {"module": "keras", "class_name": "DTypePolicy", "config": {"name": "float32"}, "registered_name": null}, "filters": 160, "kernel_size": [7, 1], "strides": [1, 1], "padding": "same", "data_format": "channels_last", "dilation_rate": [1, 1], "groups": 1, "activation": "linear", "use_bias": false, "kernel_initializer": {"module": "keras.initializers", "class_name": "GlorotUniform", "config": {"seed": null}, "registered_name": null}, "bias_initializer": {"module": "keras.initializers", "class_name": "Zeros", "config": {}, "registered_name": null}, "kernel_regularizer": null, "bias_regularizer": null, "activity_regularizer": null, "kernel_constraint": null, "bias_constraint": null}, "name": "conv2d_435", "inbound_nodes": [{"args": [{"class_name": "__keras_tensor__", "config": {"shape": [null, 7, 7, 160], "dtype": "float32", "keras_history": ["activation_422", 0, 0]}}], "kwargs": {}}]}, {"class_name": "BatchNormalization", "config": {"name": "batch_normalization_430", "trainable": false, "dtype": {"module": "keras", "class_name": "DTypePolicy", "config": {"name": "float32"}, "registered_name": null}, "axis": 3, "momentum": 0.99, "epsilon": 0.001, "center": true, "scale": false, "beta_initializer": {"module": "keras.initializers", "class_name": "Zeros", "config": {}, "registered_name": null}, "gamma_initializer": {"module": "keras.initializers", "class_name": "Ones", "config": {}, "registered_name": null}, "moving_mean_initializer": {"module": "keras.initializers", "class_name": "Zeros", "config": {}, "registered_name": null}, "moving_variance_initializer": {"module": "keras.initializers", "class_name": "Ones", "config": {}, "registered_name": null}, "beta_regularizer": null, "gamma_regularizer": null, "beta_constraint": null, "gamma_constraint": null, "synchronized": false}, "name": "batch_normalization_430", "inbound_nodes": [{"args": [{"class_name": "__keras_tensor__", "config": {"shape": [null, 7, 7, 160], "dtype": "float32", "keras_history": ["conv2d_430", 0, 0]}}], "kwargs": {"mask": null}}]}, {"class_name": "BatchNormalization", "config": {"name": "batch_normalization_435", "trainable": false, "dtype": {"module": "keras", "class_name": "DTypePolicy", "config": {"name": "float32"}, "registered_name": null}, "axis": 3, "momentum": 0.99, "epsilon": 0.001, "center": true, "scale": false, "beta_initializer": {"module": "keras.initializers", "class_name": "Zeros", "config": {}, "registered_name": null}, "gamma_initializer": {"module": "keras.initializers", "class_name": "Ones", "config": {}, "registered_name": null}, "moving_mean_initializer": {"module": "keras.initializers", "class_name": "Zeros", "config": {}, "registered_name": null}, "moving_variance_initializer": {"module": "keras.initializers", "class_name": "Ones", "config": {}, "registered_name": null}, "beta_regularizer": null, "gamma_regularizer": null, "beta_constraint": null, "gamma_constraint": null, "synchronized": false}, "name": "batch_normalization_435", "inbound_nodes": [{"args": [{"class_name": "__keras_tensor__", "config": {"shape": [null, 7, 7, 160], "dtype": "float32", "keras_history": ["conv2d_435", 0, 0]}}], "kwargs": {"mask": null}}]}, {"class_name": "Activation", "config": {"name": "activation_418", "trainable": false, "dtype": {"module": "keras", "class_name": "DTypePolicy", "config": {"name": "float32"}, "registered_name": null}, "activation": "relu"}, "name": "activation_418", "inbound_nodes": [{"args": [{"class_name": "__keras_tensor__", "config": {"shape": [null, 7, 7, 160], "dtype": "float32", "keras_history": ["batch_normalization_430", 0, 0]}}], "kwargs": {}}]}, {"class_name": "Activation", "config": {"name": "activation_423", "trainable": false, "dtype": {"module": "keras", "class_name": "DTypePolicy", "config": {"name": "float32"}, "registered_name": null}, "activation": "relu"}, "name": "activation_423", "inbound_nodes": [{"args": [{"class_name": "__keras_tensor__", "config": {"shape": [null, 7, 7, 160], "dtype": "float32", "keras_history": ["batch_normalization_435", 0, 0]}}], "kwargs": {}}]}, {"class_name": "AveragePooling2D", "config": {"name": "average_pooling2d_40", "trainable": false, "dtype": {"module": "keras", "class_name": "DTypePolicy", "config": {"name": "float32"}, "registered_name": null}, "pool_size": [3, 3], "padding": "same", "strides": [1, 1], "data_format": "channels_last"}, "name": "average_pooling2d_40", "inbound_nodes": [{"args": [{"class_name": "__keras_tensor__", "config": {"shape": [null, 7, 7, 768], "dtype": "float32", "keras_history": ["mixed4", 0, 0]}}], "kwargs": {}}]}, {"class_name": "Conv2D", "config": {"name": "conv2d_428", "trainable": false, "dtype": {"module": "keras", "class_name": "DTypePolicy", "config": {"name": "float32"}, "registered_name": null}, "filters": 192, "kernel_size": [1, 1], "strides": [1, 1], "padding": "same", "data_format": "channels_last", "dilation_rate": [1, 1], "groups": 1, "activation": "linear", "use_bias": false, "kernel_initializer": {"module": "keras.initializers", "class_name": "GlorotUniform", "config": {"seed": null}, "registered_name": null}, "bias_initializer": {"module": "keras.initializers", "class_name": "Zeros", "config": {}, "registered_name": null}, "kernel_regularizer": null, "bias_regularizer": null, "activity_regularizer": null, "kernel_constraint": null, "bias_constraint": null}, "name": "conv2d_428", "inbound_nodes": [{"args": [{"class_name": "__keras_tensor__", "config": {"shape": [null, 7, 7, 768], "dtype": "float32", "keras_history": ["mixed4", 0, 0]}}], "kwargs": {}}]}, {"class_name": "Conv2D", "config": {"name": "conv2d_431", "trainable": false, "dtype": {"module": "keras", "class_name": "DTypePolicy", "config": {"name": "float32"}, "registered_name": null}, "filters": 192, "kernel_size": [7, 1], "strides": [1, 1], "padding": "same", "data_format": "channels_last", "dilation_rate": [1, 1], "groups": 1, "activation": "linear", "use_bias": false, "kernel_initializer": {"module": "keras.initializers", "class_name": "GlorotUniform", "config": {"seed": null}, "registered_name": null}, "bias_initializer": {"module": "keras.initializers", "class_name": "Zeros", "config": {}, "registered_name": null}, "kernel_regularizer": null, "bias_regularizer": null, "activity_regularizer": null, "kernel_constraint": null, "bias_constraint": null}, "name": "conv2d_431", "inbound_nodes": [{"args": [{"class_name": "__keras_tensor__", "config": {"shape": [null, 7, 7, 160], "dtype": "float32", "keras_history": ["activation_418", 0, 0]}}], "kwargs": {}}]}, {"class_name": "Conv2D", "config": {"name": "conv2d_436", "trainable": false, "dtype": {"module": "keras", "class_name": "DTypePolicy", "config": {"name": "float32"}, "registered_name": null}, "filters": 192, "kernel_size": [1, 7], "strides": [1, 1], "padding": "same", "data_format": "channels_last", "dilation_rate": [1, 1], "groups": 1, "activation": "linear", "use_bias": false, "kernel_initializer": {"module": "keras.initializers", "class_name": "GlorotUniform", "config": {"seed": null}, "registered_name": null}, "bias_initializer": {"module": "keras.initializers", "class_name": "Zeros", "config": {}, "registered_name": null}, "kernel_regularizer": null, "bias_regularizer": null, "activity_regularizer": null, "kernel_constraint": null, "bias_constraint": null}, "name": "conv2d_436", "inbound_nodes": [{"args": [{"class_name": "__keras_tensor__", "config": {"shape": [null, 7, 7, 160], "dtype": "float32", "keras_history": ["activation_423", 0, 0]}}], "kwargs": {}}]}, {"class_name": "Conv2D", "config": {"name": "conv2d_437", "trainable": false, "dtype": {"module": "keras", "class_name": "DTypePolicy", "config": {"name": "float32"}, "registered_name": null}, "filters": 192, "kernel_size": [1, 1], "strides": [1, 1], "padding": "same", "data_format": "channels_last", "dilation_rate": [1, 1], "groups": 1, "activation": "linear", "use_bias": false, "kernel_initializer": {"module": "keras.initializers", "class_name": "GlorotUniform", "config": {"seed": null}, "registered_name": null}, "bias_initializer": {"module": "keras.initializers", "class_name": "Zeros", "config": {}, "registered_name": null}, "kernel_regularizer": null, "bias_regularizer": null, "activity_regularizer": null, "kernel_constraint": null, "bias_constraint": null}, "name": "conv2d_437", "inbound_nodes": [{"args": [{"class_name": "__keras_tensor__", "config": {"shape": [null, 7, 7, 768], "dtype": "float32", "keras_history": ["average_pooling2d_40", 0, 0]}}], "kwargs": {}}]}, {"class_name": "BatchNormalization", "config": {"name": "batch_normalization_428", "trainable": false, "dtype": {"module": "keras", "class_name": "DTypePolicy", "config": {"name": "float32"}, "registered_name": null}, "axis": 3, "momentum": 0.99, "epsilon": 0.001, "center": true, "scale": false, "beta_initializer": {"module": "keras.initializers", "class_name": "Zeros", "config": {}, "registered_name": null}, "gamma_initializer": {"module": "keras.initializers", "class_name": "Ones", "config": {}, "registered_name": null}, "moving_mean_initializer": {"module": "keras.initializers", "class_name": "Zeros", "config": {}, "registered_name": null}, "moving_variance_initializer": {"module": "keras.initializers", "class_name": "Ones", "config": {}, "registered_name": null}, "beta_regularizer": null, "gamma_regularizer": null, "beta_constraint": null, "gamma_constraint": null, "synchronized": false}, "name": "batch_normalization_428", "inbound_nodes": [{"args": [{"class_name": "__keras_tensor__", "config": {"shape": [null, 7, 7, 192], "dtype": "float32", "keras_history": ["conv2d_428", 0, 0]}}], "kwargs": {"mask": null}}]}, {"class_name": "BatchNormalization", "config": {"name": "batch_normalization_431", "trainable": false, "dtype": {"module": "keras", "class_name": "DTypePolicy", "config": {"name": "float32"}, "registered_name": null}, "axis": 3, "momentum": 0.99, "epsilon": 0.001, "center": true, "scale": false, "beta_initializer": {"module": "keras.initializers", "class_name": "Zeros", "config": {}, "registered_name": null}, "gamma_initializer": {"module": "keras.initializers", "class_name": "Ones", "config": {}, "registered_name": null}, "moving_mean_initializer": {"module": "keras.initializers", "class_name": "Zeros", "config": {}, "registered_name": null}, "moving_variance_initializer": {"module": "keras.initializers", "class_name": "Ones", "config": {}, "registered_name": null}, "beta_regularizer": null, "gamma_regularizer": null, "beta_constraint": null, "gamma_constraint": null, "synchronized": false}, "name": "batch_normalization_431", "inbound_nodes": [{"args": [{"class_name": "__keras_tensor__", "config": {"shape": [null, 7, 7, 192], "dtype": "float32", "keras_history": ["conv2d_431", 0, 0]}}], "kwargs": {"mask": null}}]}, {"class_name": "BatchNormalization", "config": {"name": "batch_normalization_436", "trainable": false, "dtype": {"module": "keras", "class_name": "DTypePolicy", "config": {"name": "float32"}, "registered_name": null}, "axis": 3, "momentum": 0.99, "epsilon": 0.001, "center": true, "scale": false, "beta_initializer": {"module": "keras.initializers", "class_name": "Zeros", "config": {}, "registered_name": null}, "gamma_initializer": {"module": "keras.initializers", "class_name": "Ones", "config": {}, "registered_name": null}, "moving_mean_initializer": {"module": "keras.initializers", "class_name": "Zeros", "config": {}, "registered_name": null}, "moving_variance_initializer": {"module": "keras.initializers", "class_name": "Ones", "config": {}, "registered_name": null}, "beta_regularizer": null, "gamma_regularizer": null, "beta_constraint": null, "gamma_constraint": null, "synchronized": false}, "name": "batch_normalization_436", "inbound_nodes": [{"args": [{"class_name": "__keras_tensor__", "config": {"shape": [null, 7, 7, 192], "dtype": "float32", "keras_history": ["conv2d_436", 0, 0]}}], "kwargs": {"mask": null}}]}, {"class_name": "BatchNormalization", "config": {"name": "batch_normalization_437", "trainable": false, "dtype": {"module": "keras", "class_name": "DTypePolicy", "config": {"name": "float32"}, "registered_name": null}, "axis": 3, "momentum": 0.99, "epsilon": 0.001, "center": true, "scale": false, "beta_initializer": {"module": "keras.initializers", "class_name": "Zeros", "config": {}, "registered_name": null}, "gamma_initializer": {"module": "keras.initializers", "class_name": "Ones", "config": {}, "registered_name": null}, "moving_mean_initializer": {"module": "keras.initializers", "class_name": "Zeros", "config": {}, "registered_name": null}, "moving_variance_initializer": {"module": "keras.initializers", "class_name": "Ones", "config": {}, "registered_name": null}, "beta_regularizer": null, "gamma_regularizer": null, "beta_constraint": null, "gamma_constraint": null, "synchronized": false}, "name": "batch_normalization_437", "inbound_nodes": [{"args": [{"class_name": "__keras_tensor__", "config": {"shape": [null, 7, 7, 192], "dtype": "float32", "keras_history": ["conv2d_437", 0, 0]}}], "kwargs": {"mask": null}}]}, {"class_name": "Activation", "config": {"name": "activation_416", "trainable": false, "dtype": {"module": "keras", "class_name": "DTypePolicy", "config": {"name": "float32"}, "registered_name": null}, "activation": "relu"}, "name": "activation_416", "inbound_nodes": [{"args": [{"class_name": "__keras_tensor__", "config": {"shape": [null, 7, 7, 192], "dtype": "float32", "keras_history": ["batch_normalization_428", 0, 0]}}], "kwargs": {}}]}, {"class_name": "Activation", "config": {"name": "activation_419", "trainable": false, "dtype": {"module": "keras", "class_name": "DTypePolicy", "config": {"name": "float32"}, "registered_name": null}, "activation": "relu"}, "name": "activation_419", "inbound_nodes": [{"args": [{"class_name": "__keras_tensor__", "config": {"shape": [null, 7, 7, 192], "dtype": "float32", "keras_history": ["batch_normalization_431", 0, 0]}}], "kwargs": {}}]}, {"class_name": "Activation", "config": {"name": "activation_424", "trainable": false, "dtype": {"module": "keras", "class_name": "DTypePolicy", "config": {"name": "float32"}, "registered_name": null}, "activation": "relu"}, "name": "activation_424", "inbound_nodes": [{"args": [{"class_name": "__keras_tensor__", "config": {"shape": [null, 7, 7, 192], "dtype": "float32", "keras_history": ["batch_normalization_436", 0, 0]}}], "kwargs": {}}]}, {"class_name": "Activation", "config": {"name": "activation_425", "trainable": false, "dtype": {"module": "keras", "class_name": "DTypePolicy", "config": {"name": "float32"}, "registered_name": null}, "activation": "relu"}, "name": "activation_425", "inbound_nodes": [{"args": [{"class_name": "__keras_tensor__", "config": {"shape": [null, 7, 7, 192], "dtype": "float32", "keras_history": ["batch_normalization_437", 0, 0]}}], "kwargs": {}}]}, {"class_name": "Concatenate", "config": {"name": "mixed5", "trainable": false, "dtype": {"module": "keras", "class_name": "DTypePolicy", "config": {"name": "float32"}, "registered_name": null}, "axis": 3}, "name": "mixed5", "inbound_nodes": [{"args": [[{"class_name": "__keras_tensor__", "config": {"shape": [null, 7, 7, 192], "dtype": "float32", "keras_history": ["activation_416", 0, 0]}}, {"class_name": "__keras_tensor__", "config": {"shape": [null, 7, 7, 192], "dtype": "float32", "keras_history": ["activation_419", 0, 0]}}, {"class_name": "__keras_tensor__", "config": {"shape": [null, 7, 7, 192], "dtype": "float32", "keras_history": ["activation_424", 0, 0]}}, {"class_name": "__keras_tensor__", "config": {"shape": [null, 7, 7, 192], "dtype": "float32", "keras_history": ["activation_425", 0, 0]}}]], "kwargs": {}}]}, {"class_name": "Conv2D", "config": {"name": "conv2d_442", "trainable": false, "dtype": {"module": "keras", "class_name": "DTypePolicy", "config": {"name": "float32"}, "registered_name": null}, "filters": 160, "kernel_size": [1, 1], "strides": [1, 1], "padding": "same", "data_format": "channels_last", "dilation_rate": [1, 1], "groups": 1, "activation": "linear", "use_bias": false, "kernel_initializer": {"module": "keras.initializers", "class_name": "GlorotUniform", "config": {"seed": null}, "registered_name": null}, "bias_initializer": {"module": "keras.initializers", "class_name": "Zeros", "config": {}, "registered_name": null}, "kernel_regularizer": null, "bias_regularizer": null, "activity_regularizer": null, "kernel_constraint": null, "bias_constraint": null}, "name": "conv2d_442", "inbound_nodes": [{"args": [{"class_name": "__keras_tensor__", "config": {"shape": [null, 7, 7, 768], "dtype": "float32", "keras_history": ["mixed5", 0, 0]}}], "kwargs": {}}]}, {"class_name": "BatchNormalization", "config": {"name": "batch_normalization_442", "trainable": false, "dtype": {"module": "keras", "class_name": "DTypePolicy", "config": {"name": "float32"}, "registered_name": null}, "axis": 3, "momentum": 0.99, "epsilon": 0.001, "center": true, "scale": false, "beta_initializer": {"module": "keras.initializers", "class_name": "Zeros", "config": {}, "registered_name": null}, "gamma_initializer": {"module": "keras.initializers", "class_name": "Ones", "config": {}, "registered_name": null}, "moving_mean_initializer": {"module": "keras.initializers", "class_name": "Zeros", "config": {}, "registered_name": null}, "moving_variance_initializer": {"module": "keras.initializers", "class_name": "Ones", "config": {}, "registered_name": null}, "beta_regularizer": null, "gamma_regularizer": null, "beta_constraint": null, "gamma_constraint": null, "synchronized": false}, "name": "batch_normalization_442", "inbound_nodes": [{"args": [{"class_name": "__keras_tensor__", "config": {"shape": [null, 7, 7, 160], "dtype": "float32", "keras_history": ["conv2d_442", 0, 0]}}], "kwargs": {"mask": null}}]}, {"class_name": "Activation", "config": {"name": "activation_430", "trainable": false, "dtype": {"module": "keras", "class_name": "DTypePolicy", "config": {"name": "float32"}, "registered_name": null}, "activation": "relu"}, "name": "activation_430", "inbound_nodes": [{"args": [{"class_name": "__keras_tensor__", "config": {"shape": [null, 7, 7, 160], "dtype": "float32", "keras_history": ["batch_normalization_442", 0, 0]}}], "kwargs": {}}]}, {"class_name": "Conv2D", "config": {"name": "conv2d_443", "trainable": false, "dtype": {"module": "keras", "class_name": "DTypePolicy", "config": {"name": "float32"}, "registered_name": null}, "filters": 160, "kernel_size": [7, 1], "strides": [1, 1], "padding": "same", "data_format": "channels_last", "dilation_rate": [1, 1], "groups": 1, "activation": "linear", "use_bias": false, "kernel_initializer": {"module": "keras.initializers", "class_name": "GlorotUniform", "config": {"seed": null}, "registered_name": null}, "bias_initializer": {"module": "keras.initializers", "class_name": "Zeros", "config": {}, "registered_name": null}, "kernel_regularizer": null, "bias_regularizer": null, "activity_regularizer": null, "kernel_constraint": null, "bias_constraint": null}, "name": "conv2d_443", "inbound_nodes": [{"args": [{"class_name": "__keras_tensor__", "config": {"shape": [null, 7, 7, 160], "dtype": "float32", "keras_history": ["activation_430", 0, 0]}}], "kwargs": {}}]}, {"class_name": "BatchNormalization", "config": {"name": "batch_normalization_443", "trainable": false, "dtype": {"module": "keras", "class_name": "DTypePolicy", "config": {"name": "float32"}, "registered_name": null}, "axis": 3, "momentum": 0.99, "epsilon": 0.001, "center": true, "scale": false, "beta_initializer": {"module": "keras.initializers", "class_name": "Zeros", "config": {}, "registered_name": null}, "gamma_initializer": {"module": "keras.initializers", "class_name": "Ones", "config": {}, "registered_name": null}, "moving_mean_initializer": {"module": "keras.initializers", "class_name": "Zeros", "config": {}, "registered_name": null}, "moving_variance_initializer": {"module": "keras.initializers", "class_name": "Ones", "config": {}, "registered_name": null}, "beta_regularizer": null, "gamma_regularizer": null, "beta_constraint": null, "gamma_constraint": null, "synchronized": false}, "name": "batch_normalization_443", "inbound_nodes": [{"args": [{"class_name": "__keras_tensor__", "config": {"shape": [null, 7, 7, 160], "dtype": "float32", "keras_history": ["conv2d_443", 0, 0]}}], "kwargs": {"mask": null}}]}, {"class_name": "Activation", "config": {"name": "activation_431", "trainable": false, "dtype": {"module": "keras", "class_name": "DTypePolicy", "config": {"name": "float32"}, "registered_name": null}, "activation": "relu"}, "name": "activation_431", "inbound_nodes": [{"args": [{"class_name": "__keras_tensor__", "config": {"shape": [null, 7, 7, 160], "dtype": "float32", "keras_history": ["batch_normalization_443", 0, 0]}}], "kwargs": {}}]}, {"class_name": "Conv2D", "config": {"name": "conv2d_439", "trainable": false, "dtype": {"module": "keras", "class_name": "DTypePolicy", "config": {"name": "float32"}, "registered_name": null}, "filters": 160, "kernel_size": [1, 1], "strides": [1, 1], "padding": "same", "data_format": "channels_last", "dilation_rate": [1, 1], "groups": 1, "activation": "linear", "use_bias": false, "kernel_initializer": {"module": "keras.initializers", "class_name": "GlorotUniform", "config": {"seed": null}, "registered_name": null}, "bias_initializer": {"module": "keras.initializers", "class_name": "Zeros", "config": {}, "registered_name": null}, "kernel_regularizer": null, "bias_regularizer": null, "activity_regularizer": null, "kernel_constraint": null, "bias_constraint": null}, "name": "conv2d_439", "inbound_nodes": [{"args": [{"class_name": "__keras_tensor__", "config": {"shape": [null, 7, 7, 768], "dtype": "float32", "keras_history": ["mixed5", 0, 0]}}], "kwargs": {}}]}, {"class_name": "Conv2D", "config": {"name": "conv2d_444", "trainable": false, "dtype": {"module": "keras", "class_name": "DTypePolicy", "config": {"name": "float32"}, "registered_name": null}, "filters": 160, "kernel_size": [1, 7], "strides": [1, 1], "padding": "same", "data_format": "channels_last", "dilation_rate": [1, 1], "groups": 1, "activation": "linear", "use_bias": false, "kernel_initializer": {"module": "keras.initializers", "class_name": "GlorotUniform", "config": {"seed": null}, "registered_name": null}, "bias_initializer": {"module": "keras.initializers", "class_name": "Zeros", "config": {}, "registered_name": null}, "kernel_regularizer": null, "bias_regularizer": null, "activity_regularizer": null, "kernel_constraint": null, "bias_constraint": null}, "name": "conv2d_444", "inbound_nodes": [{"args": [{"class_name": "__keras_tensor__", "config": {"shape": [null, 7, 7, 160], "dtype": "float32", "keras_history": ["activation_431", 0, 0]}}], "kwargs": {}}]}, {"class_name": "BatchNormalization", "config": {"name": "batch_normalization_439", "trainable": false, "dtype": {"module": "keras", "class_name": "DTypePolicy", "config": {"name": "float32"}, "registered_name": null}, "axis": 3, "momentum": 0.99, "epsilon": 0.001, "center": true, "scale": false, "beta_initializer": {"module": "keras.initializers", "class_name": "Zeros", "config": {}, "registered_name": null}, "gamma_initializer": {"module": "keras.initializers", "class_name": "Ones", "config": {}, "registered_name": null}, "moving_mean_initializer": {"module": "keras.initializers", "class_name": "Zeros", "config": {}, "registered_name": null}, "moving_variance_initializer": {"module": "keras.initializers", "class_name": "Ones", "config": {}, "registered_name": null}, "beta_regularizer": null, "gamma_regularizer": null, "beta_constraint": null, "gamma_constraint": null, "synchronized": false}, "name": "batch_normalization_439", "inbound_nodes": [{"args": [{"class_name": "__keras_tensor__", "config": {"shape": [null, 7, 7, 160], "dtype": "float32", "keras_history": ["conv2d_439", 0, 0]}}], "kwargs": {"mask": null}}]}, {"class_name": "BatchNormalization", "config": {"name": "batch_normalization_444", "trainable": false, "dtype": {"module": "keras", "class_name": "DTypePolicy", "config": {"name": "float32"}, "registered_name": null}, "axis": 3, "momentum": 0.99, "epsilon": 0.001, "center": true, "scale": false, "beta_initializer": {"module": "keras.initializers", "class_name": "Zeros", "config": {}, "registered_name": null}, "gamma_initializer": {"module": "keras.initializers", "class_name": "Ones", "config": {}, "registered_name": null}, "moving_mean_initializer": {"module": "keras.initializers", "class_name": "Zeros", "config": {}, "registered_name": null}, "moving_variance_initializer": {"module": "keras.initializers", "class_name": "Ones", "config": {}, "registered_name": null}, "beta_regularizer": null, "gamma_regularizer": null, "beta_constraint": null, "gamma_constraint": null, "synchronized": false}, "name": "batch_normalization_444", "inbound_nodes": [{"args": [{"class_name": "__keras_tensor__", "config": {"shape": [null, 7, 7, 160], "dtype": "float32", "keras_history": ["conv2d_444", 0, 0]}}], "kwargs": {"mask": null}}]}, {"class_name": "Activation", "config": {"name": "activation_427", "trainable": false, "dtype": {"module": "keras", "class_name": "DTypePolicy", "config": {"name": "float32"}, "registered_name": null}, "activation": "relu"}, "name": "activation_427", "inbound_nodes": [{"args": [{"class_name": "__keras_tensor__", "config": {"shape": [null, 7, 7, 160], "dtype": "float32", "keras_history": ["batch_normalization_439", 0, 0]}}], "kwargs": {}}]}, {"class_name": "Activation", "config": {"name": "activation_432", "trainable": false, "dtype": {"module": "keras", "class_name": "DTypePolicy", "config": {"name": "float32"}, "registered_name": null}, "activation": "relu"}, "name": "activation_432", "inbound_nodes": [{"args": [{"class_name": "__keras_tensor__", "config": {"shape": [null, 7, 7, 160], "dtype": "float32", "keras_history": ["batch_normalization_444", 0, 0]}}], "kwargs": {}}]}, {"class_name": "Conv2D", "config": {"name": "conv2d_440", "trainable": false, "dtype": {"module": "keras", "class_name": "DTypePolicy", "config": {"name": "float32"}, "registered_name": null}, "filters": 160, "kernel_size": [1, 7], "strides": [1, 1], "padding": "same", "data_format": "channels_last", "dilation_rate": [1, 1], "groups": 1, "activation": "linear", "use_bias": false, "kernel_initializer": {"module": "keras.initializers", "class_name": "GlorotUniform", "config": {"seed": null}, "registered_name": null}, "bias_initializer": {"module": "keras.initializers", "class_name": "Zeros", "config": {}, "registered_name": null}, "kernel_regularizer": null, "bias_regularizer": null, "activity_regularizer": null, "kernel_constraint": null, "bias_constraint": null}, "name": "conv2d_440", "inbound_nodes": [{"args": [{"class_name": "__keras_tensor__", "config": {"shape": [null, 7, 7, 160], "dtype": "float32", "keras_history": ["activation_427", 0, 0]}}], "kwargs": {}}]}, {"class_name": "Conv2D", "config": {"name": "conv2d_445", "trainable": false, "dtype": {"module": "keras", "class_name": "DTypePolicy", "config": {"name": "float32"}, "registered_name": null}, "filters": 160, "kernel_size": [7, 1], "strides": [1, 1], "padding": "same", "data_format": "channels_last", "dilation_rate": [1, 1], "groups": 1, "activation": "linear", "use_bias": false, "kernel_initializer": {"module": "keras.initializers", "class_name": "GlorotUniform", "config": {"seed": null}, "registered_name": null}, "bias_initializer": {"module": "keras.initializers", "class_name": "Zeros", "config": {}, "registered_name": null}, "kernel_regularizer": null, "bias_regularizer": null, "activity_regularizer": null, "kernel_constraint": null, "bias_constraint": null}, "name": "conv2d_445", "inbound_nodes": [{"args": [{"class_name": "__keras_tensor__", "config": {"shape": [null, 7, 7, 160], "dtype": "float32", "keras_history": ["activation_432", 0, 0]}}], "kwargs": {}}]}, {"class_name": "BatchNormalization", "config": {"name": "batch_normalization_440", …
nt": null, "bias_constraint": null}, "name": "conv2d_481", "inbound_nodes": [{"args": [{"class_name": "__keras_tensor__", "config": {"shape": [null, 3, 3, 2048], "dtype": "float32", "keras_history": ["average_pooling2d_44", 0, 0]}}], "kwargs": {}}]}, {"class_name": "BatchNormalization", "config": {"name": "batch_normalization_473", "trainable": false, "dtype": {"module": "keras", "class_name": "DTypePolicy", "config": {"name": "float32"}, "registered_name": null}, "axis": 3, "momentum": 0.99, "epsilon": 0.001, "center": true, "scale": false, "beta_initializer": {"module": "keras.initializers", "class_name": "Zeros", "config": {}, "registered_name": null}, "gamma_initializer": {"module": "keras.initializers", "class_name": "Ones", "config": {}, "registered_name": null}, "moving_mean_initializer": {"module": "keras.initializers", "class_name": "Zeros", "config": {}, "registered_name": null}, "moving_variance_initializer": {"module": "keras.initializers", "class_name": "Ones", "config": {}, "registered_name": null}, "beta_regularizer": null, "gamma_regularizer": null, "beta_constraint": null, "gamma_constraint": null, "synchronized": false}, "name": "batch_normalization_473", "inbound_nodes": [{"args": [{"class_name": "__keras_tensor__", "config": {"shape": [null, 3, 3, 320], "dtype": "float32", "keras_history": ["conv2d_473", 0, 0]}}], "kwargs": {"mask": null}}]}, {"class_name": "Activation", "config": {"name": "activation_463", "trainable": false, "dtype": {"module": "keras", "class_name": "DTypePolicy", "config": {"name": "float32"}, "registered_name": null}, "activation": "relu"}, "name": "activation_463", "inbound_nodes": [{"args": [{"class_name": "__keras_tensor__", "config": {"shape": [null, 3, 3, 384], "dtype": "float32", "keras_history": ["batch_normalization_475", 0, 0]}}], "kwargs": {}}]}, {"class_name": "Activation", "config": {"name": "activation_464", "trainable": false, "dtype": {"module": "keras", "class_name": "DTypePolicy", "config": {"name": "float32"}, "registered_name": null}, "activation": "relu"}, "name": "activation_464", "inbound_nodes": [{"args": [{"class_name": "__keras_tensor__", "config": {"shape": [null, 3, 3, 384], "dtype": "float32", "keras_history": ["batch_normalization_476", 0, 0]}}], "kwargs": {}}]}, {"class_name": "Activation", "config": {"name": "activation_467", "trainable": false, "dtype": {"module": "keras", "class_name": "DTypePolicy", "config": {"name": "float32"}, "registered_name": null}, "activation": "relu"}, "name": "activation_467", "inbound_nodes": [{"args": [{"class_name": "__keras_tensor__", "config": {"shape": [null, 3, 3, 384], "dtype": "float32", "keras_history": ["batch_normalization_479", 0, 0]}}], "kwargs": {}}]}, {"class_name": "Activation", "config": {"name": "activation_468", "trainable": false, "dtype": {"module": "keras", "class_name": "DTypePolicy", "config": {"name": "float32"}, "registered_name": null}, "activation": "relu"}, "name": "activation_468", "inbound_nodes": [{"args": [{"class_name": "__keras_tensor__", "config": {"shape": [null, 3, 3, 384], "dtype": "float32", "keras_history": ["batch_normalization_480", 0, 0]}}], "kwargs": {}}]}, {"class_name": "BatchNormalization", "config": {"name": "batch_normalization_481", "trainable": false, "dtype": {"module": "keras", "class_name": "DTypePolicy", "config": {"name": "float32"}, "registered_name": null}, "axis": 3, "momentum": 0.99, "epsilon": 0.001, "center": true, "scale": false, "beta_initializer": {"module": "keras.initializers", "class_name": "Zeros", "config": {}, "registered_name": null}, "gamma_initializer": {"module": "keras.initializers", "class_name": "Ones", "config": {}, "registered_name": null}, "moving_mean_initializer": {"module": "keras.initializers", "class_name": "Zeros", "config": {}, "registered_name": null}, "moving_variance_initializer": {"module": "keras.initializers", "class_name": "Ones", "config": {}, "registered_name": null}, "beta_regularizer": null, "gamma_regularizer": null, "beta_constraint": null, "gamma_constraint": null, "synchronized": false}, "name": "batch_normalization_481", "inbound_nodes": [{"args": [{"class_name": "__keras_tensor__", "config": {"shape": [null, 3, 3, 192], "dtype": "float32", "keras_history": ["conv2d_481", 0, 0]}}], "kwargs": {"mask": null}}]}, {"class_name": "Activation", "config": {"name": "activation_461", "trainable": false, "dtype": {"module": "keras", "class_name": "DTypePolicy", "config": {"name": "float32"}, "registered_name": null}, "activation": "relu"}, "name": "activation_461", "inbound_nodes": [{"args": [{"class_name": "__keras_tensor__", "config": {"shape": [null, 3, 3, 320], "dtype": "float32", "keras_history": ["batch_normalization_473", 0, 0]}}], "kwargs": {}}]}, {"class_name": "Concatenate", "config": {"name": "mixed9_1", "trainable": false, "dtype": {"module": "keras", "class_name": "DTypePolicy", "config": {"name": "float32"}, "registered_name": null}, "axis": 3}, "name": "mixed9_1", "inbound_nodes": [{"args": [[{"class_name": "__keras_tensor__", "config": {"shape": [null, 3, 3, 384], "dtype": "float32", "keras_history": ["activation_463", 0, 0]}}, {"class_name": "__keras_tensor__", "config": {"shape": [null, 3, 3, 384], "dtype": "float32", "keras_history": ["activation_464", 0, 0]}}]], "kwargs": {}}]}, {"class_name": "Concatenate", "config": {"name": "concatenate_9", "trainable": false, "dtype": {"module": "keras", "class_name": "DTypePolicy", "config": {"name": "float32"}, "registered_name": null}, "axis": 3}, "name": "concatenate_9", "inbound_nodes": [{"args": [[{"class_name": "__keras_tensor__", "config": {"shape": [null, 3, 3, 384], "dtype": "float32", "keras_history": ["activation_467", 0, 0]}}, {"class_name": "__keras_tensor__", "config": {"shape": [null, 3, 3, 384], "dtype": "float32", "keras_history": ["activation_468", 0, 0]}}]], "kwargs": {}}]}, {"class_name": "Activation", "config": {"name": "activation_469", "trainable": false, "dtype": {"module": "keras", "class_name": "DTypePolicy", "config": {"name": "float32"}, "registered_name": null}, "activation": "relu"}, "name": "activation_469", "inbound_nodes": [{"args": [{"class_name": "__keras_tensor__", "config": {"shape": [null, 3, 3, 192], "dtype": "float32", "keras_history": ["batch_normalization_481", 0, 0]}}], "kwargs": {}}]}, {"class_name": "Concatenate", "config": {"name": "mixed10", "trainable": false, "dtype": {"module": "keras", "class_name": "DTypePolicy", "config": {"name": "float32"}, "registered_name": null}, "axis": 3}, "name": "mixed10", "inbound_nodes": [{"args": [[{"class_name": "__keras_tensor__", "config": {"shape": [null, 3, 3, 320], "dtype": "float32", "keras_history": ["activation_461", 0, 0]}}, {"class_name": "__keras_tensor__", "config": {"shape": [null, 3, 3, 768], "dtype": "float32", "keras_history": ["mixed9_1", 0, 0]}}, {"class_name": "__keras_tensor__", "config": {"shape": [null, 3, 3, 768], "dtype": "float32", "keras_history": ["concatenate_9", 0, 0]}}, {"class_name": "__keras_tensor__", "config": {"shape": [null, 3, 3, 192], "dtype": "float32", "keras_history": ["activation_469", 0, 0]}}]], "kwargs": {}}]}], "input_layers": [["input_layer_8", 0, 0]], "output_layers": [["mixed10", 0, 0]]}}, {"class_name": "Conv2D", "config": {"name": "conv2d_482", "trainable": true, "dtype": {"module": "keras", "class_name": "DTypePolicy", "config": {"name": "float32"}, "registered_name": null}, "filters": 32, "kernel_size": [3, 3], "strides": [1, 1], "padding": "same", "data_format": "channels_last", "dilation_rate": [1, 1], "groups": 1, "activation": "linear", "use_bias": true, "kernel_initializer": {"module": "keras.initializers", "class_name": "GlorotUniform", "config": {"seed": null}, "registered_name": null}, "bias_initializer": {"module": "keras.initializers", "class_name": "Zeros", "config": {}, "registered_name": null}, "kernel_regularizer": null, "bias_regularizer": null, "activity_regularizer": null, "kernel_constraint": null, "bias_constraint": null}}, {"class_name": "LeakyReLU", "config": {"name": "leaky_re_lu_12", "trainable": true, "dtype": {"module": "keras", "class_name": "DTypePolicy", "config": {"name": "float32"}, "registered_name": null}, "negative_slope": 0.3}}, {"class_name": "BatchNormalization", "config": {"name": "batch_normalization_482", "trainable": true, "dtype": {"module": "keras", "class_name": "DTypePolicy", "config": {"name": "float32"}, "registered_name": null}, "axis": -1, "momentum": 0.99, "epsilon": 0.001, "center": true, "scale": true, "beta_initializer": {"module": "keras.initializers", "class_name": "Zeros", "config": {}, "registered_name": null}, "gamma_initializer": {"module": "keras.initializers", "class_name": "Ones", "config": {}, "registered_name": null}, "moving_mean_initializer": {"module": "keras.initializers", "class_name": "Zeros", "config": {}, "registered_name": null}, "moving_variance_initializer": {"module": "keras.initializers", "class_name": "Ones", "config": {}, "registered_name": null}, "beta_regularizer": null, "gamma_regularizer": null, "beta_constraint": null, "gamma_constraint": null, "synchronized": false}}, {"class_name": "MaxPooling2D", "config": {"name": "max_pooling2d_24", "trainable": true, "dtype": {"module": "keras", "class_name": "DTypePolicy", "config": {"name": "float32"}, "registered_name": null}, "pool_size": [2, 2], "padding": "valid", "strides": [2, 2], "data_format": "channels_last"}}, {"class_name": "Conv2D", "config": {"name": "conv2d_483", "trainable": true, "dtype": {"module": "keras", "class_name": "DTypePolicy", "config": {"name": "float32"}, "registered_name": null}, "filters": 32, "kernel_size": [4, 4], "strides": [1, 1], "padding": "same", "data_format": "channels_last", "dilation_rate": [1, 1], "groups": 1, "activation": "linear", "use_bias": true, "kernel_initializer": {"module": "keras.initializers", "class_name": "GlorotUniform", "config": {"seed": null}, "registered_name": null}, "bias_initializer": {"module": "keras.initializers", "class_name": "Zeros", "config": {}, "registered_name": null}, "kernel_regularizer": null, "bias_regularizer": null, "activity_regularizer": null, "kernel_constraint": null, "bias_constraint": null}}, {"class_name": "LeakyReLU", "config": {"name": "leaky_re_lu_13", "trainable": true, "dtype": {"module": "keras", "class_name": "DTypePolicy", "config": {"name": "float32"}, "registered_name": null}, "negative_slope": 0.3}}, {"class_name": "BatchNormalization", "config": {"name": "batch_normalization_483", "trainable": true, "dtype": {"module": "keras", "class_name": "DTypePolicy", "config": {"name": "float32"}, "registered_name": null}, "axis": -1, "momentum": 0.99, "epsilon": 0.001, "center": true, "scale": true, "beta_initializer": {"module": "keras.initializers", "class_name": "Zeros", "config": {}, "registered_name": null}, "gamma_initializer": {"module": "keras.initializers", "class_name": "Ones", "config": {}, "registered_name": null}, "moving_mean_initializer": {"module": "keras.initializers", "class_name": "Zeros", "config": {}, "registered_name": null}, "moving_variance_initializer": {"module": "keras.initializers", "class_name": "Ones", "config": {}, "registered_name": null}, "beta_regularizer": null, "gamma_regularizer": null, "beta_constraint": null, "gamma_constraint": null, "synchronized": false}}, {"class_name": "Conv2D", "config": {"name": "conv2d_484", "trainable": true, "dtype": {"module": "keras", "class_name": "DTypePolicy", "config": {"name": "float32"}, "registered_name": null}, "filters": 32, "kernel_size": [7, 7], "strides": [1, 1], "padding": "same", "data_format": "channels_last", "dilation_rate": [1, 1], "groups": 1, "activation": "linear", "use_bias": true, "kernel_initializer": {"module": "keras.initializers", "class_name": "GlorotUniform", "config": {"seed": null}, "registered_name": null}, "bias_initializer": {"module": "keras.initializers", "class_name": "Zeros", "config": {}, "registered_name": null}, "kernel_regularizer": null, "bias_regularizer": null, "activity_regularizer": null, "kernel_constraint": null, "bias_constraint": null}}, {"class_name": "LeakyReLU", "config": {"name": "leaky_re_lu_14", "trainable": true, "dtype": {"module": "keras", "class_name": "DTypePolicy", "config": {"name": "float32"}, "registered_name": null}, "negative_slope": 0.3}}, {"class_name": "BatchNormalization", "config": {"name": "batch_normalization_484", "trainable": true, "dtype": {"module": "keras", "class_name": "DTypePolicy", "config": {"name": "float32"}, "registered_name": null}, "axis": -1, "momentum": 0.99, "epsilon": 0.001, "center": true, "scale": true, "beta_initializer": {"module": "keras.initializers", "class_name": "Zeros", "config": {}, "registered_name": null}, "gamma_initializer": {"module": "keras.initializers", "class_name": "Ones", "config": {}, "registered_name": null}, "moving_mean_initializer": {"module": "keras.initializers", "class_name": "Zeros", "config": {}, "registered_name": null}, "moving_variance_initializer": {"module": "keras.initializers", "class_name": "Ones", "config": {}, "registered_name": null}, "beta_regularizer": null, "gamma_regularizer": null, "beta_constraint": null, "gamma_constraint": null, "synchronized": false}}, {"class_name": "Flatten", "config": {"name": "flatten_4", "trainable": true, "dtype": {"module": "keras", "class_name": "DTypePolicy", "config": {"name": "float32"}, "registered_name": null}, "data_format": "channels_last"}}, {"class_name": "Dense", "config": {"name": "dense_12", "trainable": true, "dtype": {"module": "keras", "class_name": "DTypePolicy", "config": {"name": "float32"}, "registered_name": null}, "units": 128, "activation": "elu", "use_bias": true, "kernel_initializer": {"module": "keras.initializers", "class_name": "GlorotUniform", "config": {"seed": null}, "registered_name": null}, "bias_initializer": {"module": "keras.initializers", "class_name": "Zeros", "config": {}, "registered_name": null}, "kernel_regularizer": null, "bias_regularizer": null, "kernel_constraint": null, "bias_constraint": null}}, {"class_name": "Dropout", "config": {"name": "dropout_8", "trainable": true, "dtype": {"module": "keras", "class_name": "DTypePolicy", "config": {"name": "float32"}, "registered_name": null}, "rate": 0.3, "seed": null, "noise_shape": null}}, {"class_name": "Dense", "config": {"name": "dense_13", "trainable": true, "dtype": {"module": "keras", "class_name": "DTypePolicy", "config": {"name": "float32"}, "registered_name": null}, "units": 64, "activation": "silu", "use_bias": true, "kernel_initializer": {"module": "keras.initializers", "class_name": "GlorotUniform", "config": {"seed": null}, "registered_name": null}, "bias_initializer": {"module": "keras.initializers", "class_name": "Zeros", "config": {}, "registered_name": null}, "kernel_regularizer": null, "bias_regularizer": null, "kernel_constraint": null, "bias_constraint": null}}, {"class_name": "Dropout", "config": {"name": "dropout_9", "trainable": true, "dtype": {"module": "keras", "class_name": "DTypePolicy", "config": {"name": "float32"}, "registered_name": null}, "rate": 0.2, "seed": null, "noise_shape": null}}, {"class_name": "Dense", "config": {"name": "dense_14", "trainable": true, "dtype": {"module": "keras", "class_name": "DTypePolicy", "config": {"name": "float32"}, "registered_name": null}, "units": 11, "activation": "softmax", "use_bias": true, "kernel_initializer": {"module": "keras.initializers", "class_name": "GlorotUniform", "config": {"seed": null}, "registered_name": null}, "bias_initializer": {"module": "keras.initializers", "class_name": "Zeros", "config": {}, "registered_name": null}, "kernel_regularizer": null, "bias_regularizer": null, "kernel_constraint": null, "bias_constraint": null}}], "build_input_shape": [null, 150, 150, 3]}}, "training_config": {"loss": "categorical_crossentropy", "loss_weights": null, "metrics": ["accuracy"], "weighted_metrics": null, "run_eagerly": false, "steps_per_execution": 1, "jit_compile": false, "optimizer_config": {"class_name": "Adam", "config": {"name": "adam", "learning_rate": 8.000000889296643e-06, "weight_decay": null, "clipnorm": null, "global_clipnorm": null, "clipvalue": null, "use_ema": false, "ema_momentum": 0.99, "ema_overwrite_frequency": null, "loss_scale_factor": null, "gradient_accumulation_steps": null, "beta_1": 0.9, "beta_2": 0.999, "epsilon": 1e-07, "amsgrad": false}}}}, "weightsManifest": [{"paths": ["group1-shard1of22.bin", "group1-shard2of22.bin", "group1-shard3of22.bin", "group1-shard4of22.bin", "group1-shard5of22.bin", "group1-shard6of22.bin", "group1-shard7of22.bin", "group1-shard8of22.bin", "group1-shard9of22.bin", "group1-shard10of22.bin", "group1-shard11of22.bin", "group1-shard12of22.bin", "group1-shard13of22.bin", "group1-shard14of22.bin", "group1-shard15of22.bin", "group1-shard16of22.bin", "group1-shard17of22.bin", "group1-shard18of22.bin", "group1-shard19of22.bin", "group1-shard20of22.bin", "group1-shard21of22.bin", "group1-shard22of22.bin"], "weights": [{"name": "sequential_4/batch_normalization_482/gamma", "shape": [32], "dtype": "float32"}, {"name": "sequential_4/batch_normalization_482/beta", "shape": [32], "dtype": "float32"}, {"name": "sequential_4/batch_normalization_482/moving_mean", "shape": [32], "dtype": "float32"}, {"name": "sequential_4/batch_normalization_482/moving_variance", "shape": [32], "dtype": "float32"}, {"name": "sequential_4/batch_normalization_483/gamma", "shape": [32], "dtype": "float32"}, {"name": "sequential_4/batch_normalization_483/beta", "shape": [32], "dtype": "float32"}, {"name": "sequential_4/batch_normalization_483/moving_mean", "shape": [32], "dtype": "float32"}, {"name": "sequential_4/batch_normalization_483/moving_variance", "shape": [32], "dtype": "float32"}, {"name": "sequential_4/batch_normalization_484/gamma", "shape": [32], "dtype": "float32"}, {"name": "sequential_4/batch_normalization_484/beta", "shape": [32], "dtype": "float32"}, {"name": "sequential_4/batch_normalization_484/moving_mean", "shape": [32], "dtype": "float32"}, {"name": "sequential_4/batch_normalization_484/moving_variance", "shape": [32], "dtype": "float32"}, {"name": "sequential_4/conv2d_482/kernel", "shape": [3, 3, 2048, 32], "dtype": "float32"}, {"name": "sequential_4/conv2d_482/bias", "shape": [32], "dtype": "float32"}, {"name": "sequential_4/conv2d_483/kernel", "shape": [4, 4, 32, 32], "dtype": "float32"}, {"name": "sequential_4/conv2d_483/bias", "shape": [32], "dtype": "float32"}, {"name": "sequential_4/conv2d_484/kernel", "shape": [7, 7, 32, 32], "dtype": "float32"}, {"name": "sequential_4/conv2d_484/bias", "shape": [32], "dtype": "float32"}, {"name": "sequential_4/dense_12/kernel", "shape": [32, 128], "dtype": "float32"}, {"name": "sequential_4/dense_12/bias", "shape": [128], "dtype": "float32"}, {"name": "sequential_4/dense_13/kernel", "shape": [128, 64], "dtype": "float32"}, {"name": "sequential_4/dense_13/bias", "shape": [64], "dtype": "float32"}, {"name": "sequential_4/dense_14/kernel", "shape": [64, 11], "dtype": "float32"}, {"name": "sequential_4/dense_14/bias", "shape": [11], "dtype": "float32"}, {"name": "conv2d_388/kernel", "shape": [3, 3, 3, 32], "dtype": "float32"}, {"name": "batch_normalization_388/beta", "shape": [32], "dtype": "float32"}, {"name": "batch_normalization_388/moving_mean", "shape": [32], "dtype": "float32"}, {"name": "batch_normalization_388/moving_variance", "shape": [32], "dtype": "float32"}, {"name": "conv2d_389/kernel", "shape": [3, 3, 32, 32], "dtype": "float32"}, {"name": "batch_normalization_389/beta", "shape": [32], "dtype": "float32"}, {"name": "batch_normalization_389/moving_mean", "shape": [32], "dtype": "float32"}, {"name": "batch_normalization_389/moving_variance", "shape": [32], "dtype": "float32"}, {"name": "conv2d_390/kernel", "shape": [3, 3, 32, 64], "dtype": "float32"}, {"name": "batch_normalization_390/beta", "shape": [64], "dtype": "float32"}, {"name": "batch_normalization_390/moving_mean", "shape": [64], "dtype": "float32"}, {"name": "batch_normalization_390/moving_variance", "shape": [64], "dtype": "float32"}, {"name": "conv2d_391/kernel", "shape": [1, 1, 64, 80], "dtype": "float32"}, {"name": "batch_normalization_391/beta", "shape": [80], "dtype": "float32"}, {"name": "batch_normalization_391/moving_mean", "shape": [80], "dtype": "float32"}, {"name": "batch_normalization_391/moving_variance", "shape": [80], "dtype": "float32"}, {"name": "conv2d_392/kernel", "shape": [3, 3, 80, 192], "dtype": "float32"}, {"name": "batch_normalization_392/beta", "shape": [192], "dtype": "float32"}, {"name": "batch_normalization_392/moving_mean", "shape": [192], "dtype": "float32"}, {"name": "batch_normalization_392/moving_variance", "shape": [192], "dtype": "float32"}, {"name": "conv2d_396/kernel", "shape": [1, 1, 192, 64], "dtype": "float32"}, {"name": "batch_normalization_396/beta", "shape": [64], "dtype": "float32"}, {"name": "batch_normalization_396/moving_mean", "shape": [64], "dtype": "float32"}, {"name": "batch_normalization_396/moving_variance", "shape": [64], "dtype": "float32"}, {"name": "conv2d_394/kernel", "shape": [1, 1, 192, 48], "dtype": "float32"}, {"name": "conv2d_397/kernel", "shape": [3, 3, 64, 96], "dtype": "float32"}, {"name": "batch_normalization_394/beta", "shape": [48], "dtype": "float32"}, {"name": "batch_normalization_394/moving_mean", "shape": [48], "dtype": "float32"}, {"name": "batch_normalization_394/moving_variance", "shape": [48], "dtype": "float32"}, {"name": "batch_normalization_397/beta", "shape": [96], "dtype": "float32"}, {"name": "batch_normalization_397/moving_mean", "shape": [96], "dtype": "float32"}, {"name": "batch_normalization_397/moving_variance", "shape": [96], "dtype": "float32"}, {"name": "conv2d_393/kernel", "shape": [1, 1, 192, 64], "dtype": "float32"}, {"name": "conv2d_395/kernel", "shape": [5, 5, 48, 64], "dtype": "float32"}, {"name": "conv2d_398/kernel", "shape": [3, 3, 96, 96], "dtype": "float32"}, {"name": "conv2d_399/kernel", "shape": [1, 1, 192, 32], "dtype": "float32"}, {"name": "batch_normalization_393/beta", "shape": [64], "dtype": "float32"}, {"name": "batch_normalization_393/moving_mean", "shape": [64], "dtype": "float32"}, {"name": "batch_normalization_393/moving_variance", "shape": [64], "dtype": "float32"}, {"name": "batch_normalization_395/beta", "shape": [64], "dtype": "float32"}, {"name": "batch_normalization_395/moving_mean", "shape": [64], "dtype": "float32"}, {"name": "batch_normalization_395/moving_variance", "shape": [64], "dtype": "float32"}, {"name": "batch_normalization_398/beta", "shape": [96], "dtype": "float32"}, {"name": "batch_normalization_398/moving_mean", "shape": [96], "dtype": "float32"}, {"name": "batch_normalization_398/moving_variance", "shape": [96], "dtype": "float32"}, {"name": "batch_normalization_399/beta", "shape": [32], "dtype": "float32"}, {"name": "batch_normalization_399/moving_mean", "shape": [32], "dtype": "float32"}, {"name": "batch_normalization_399/moving_variance", "shape": [32], "dtype": "float32"}, {"name": "conv2d_403/kernel", "shape": [1, 1, 256, 64], "dtype": "float32"}, {"name": "batch_normalization_403/beta", "shape": [64], "dtype": "float32"}, {"name": "batch_normalization_403/moving_mean", "shape": [64], "dtype": "float32"}, {"name": "batch_normalization_403/moving_variance", "shape": [64], "dtype": "float32"}, {"name": "conv2d_401/kernel", "shape": [1, 1, 256, 48], "dtype": "float32"}, {"name": "conv2d_404/kernel", "shape": [3, 3, 64, 96], "dtype": "float32"}, {"name": "batch_normalization_401/beta", "shape": [48], "dtype": "float32"}, {"name": "batch_normalization_401/moving_mean", "shape": [48], "dtype": "float32"}, {"name": "batch_normalization_401/moving_variance", "shape": [48], "dtype": "float32"}, {"name": "batch_normalization_404/beta", "shape": [96], "dtype": "float32"}, {"name": "batch_normalization_404/moving_mean", "shape": [96], "dtype": "float32"}, {"name": "batch_normalization_404/moving_variance", "shape": [96], "dtype": "float32"}, {"name": "conv2d_400/kernel", "shape": [1, 1, 256, 64], "dtype": "float32"}, {"name": "conv2d_402/kernel", "shape": [5, 5, 48, 64], "dtype": "float32"}, {"name": "conv2d_405/kernel", "shape": [3, 3, 96, 96], "dtype": "float32"}, {"name": "conv2d_406/kernel", "shape": [1, 1, 256, 64], "dtype": "float32"}, {"name": "batch_normalization_400/beta", "shape": [64], "dtype": "float32"}, {"name": "batch_normalization_400/moving_mean", "shape": [64], "dtype": "float32"}, {"name": "batch_normalization_400/moving_variance", "shape": [64], "dtype": "float32"}, {"name": "batch_normalization_402/beta", "shape": [64], "dtype": "float32"}, {"name": "batch_normalization_402/moving_mean", "shape": [64], "dtype": "float32"}, {"name": "batch_normalization_402/moving_variance", "shape": [64], "dtype": "float32"}, {"name": "batch_normalization_405/beta", "shape": [96], "dtype": "float32"}, {"name": "batch_normalization_405/moving_mean", "shape": [96], "dtype": "float32"}, {"name": "batch_normalization_405/moving_variance", "shape": [96], "dtype": "float32"}, {"name": "batch_normalization_406/beta", "shape": [64], "dtype": "float32"}, {"name": "batch_normalization_406/moving_mean", "shape": [64], "dtype": "float32"}, {"name": "batch_normalization_406/moving_variance", "shape": [64], "dtype": "float32"}, {"name": "conv2d_410/kernel", "shape": [1, 1, 288, 64], "dtype": "float32"}, {"name": "batch_normalization_410/beta", "shape": [64], "dtype": "float32"}, {"name": "batch_normalization_410/moving_mean", "shape": [64], "dtype": "float32"}, {"name": "batch_normalization_410/moving_variance", "shape": [64], "dtype": "float32"}, {"name": "conv2d_408/kernel", "shape": [1, 1, 288, 48], "dtype": "float32"}, {"name": "conv2d_411/kernel", "shape": [3, 3, 64, 96], "dtype": "float32"}, {"name": "batch_normalization_408/beta", "shape": [48], "dtype": "float32"}, {"name": "batch_normalization_408/moving_mean", "shape": [48], "dtype": "float32"}, {"name": "batch_normalization_408/moving_variance", "shape": [48], "dtype": "float32"}, {"name": "batch_normalization_411/beta", "shape": [96], "dtype": "float32"}, {"name": "batch_normalization_411/moving_mean", "shape": [96], "dtype": "float32"}, {"name": "batch_normalization_411/moving_variance", "shape": [96], "dtype": "float32"}, {"name": "conv2d_407/kernel", "shape": [1, 1, 288, 64], "dtype": "float32"}, {"name": "conv2d_409/kernel", "shape": [5, 5, 48, 64], "dtype": "float32"}, {"name": "conv2d_412/kernel", "shape": [3, 3, 96, 96], "dtype": "float32"}, {"name": "conv2d_413/kernel", "shape": [1, 1, 288, 64], "dtype": "float32"}, {"name": "batch_normalization_407/beta", "shape": [64], "dtype": "float32"}, {"name": "batch_normalization_407/moving_mean", "shape": [64], "dtype": "float32"}, {"name": "batch_normalization_407/moving_variance", "shape": [64], "dtype": "float32"}, {"name": "batch_normalization_409/beta", "shape": [64], "dtype": "float32"}, {"name": "batch_normalization_409/moving_mean", "shape": [64], "dtype": "float32"}, {"name": "batch_normalization_409/moving_variance", "shape": [64], "dtype": "float32"}, {"name": "batch_normalization_412/beta", "shape": [96], "dtype": "float32"}, {"name": "batch_normalization_412/moving_mean", "shape": [96], "dtype": "float32"}, {"name": "batch_normalization_412/moving_variance", "shape": [96], "dtype": "float32"}, {"name": "batch_normalization_413/beta", "shape": [64], "dtype": "float32"}, {"name": "batch_normalization_413/moving_mean", "shape": [64], "dtype": "float32"}, {"name": "batch_normalization_413/moving_variance", "shape": [64], "dtype": "float32"}, {"name": "conv2d_415/kernel", "shape": [1, 1, 288, 64], "dtype": "float32"}, {"name": "batch_normalization_415/beta", "shape": [64], "dtype": "float32"}, {"name": "batch_normalization_415/moving_mean", "shape": [64], "dtype": "float32"}, {"name": "batch_normalization_415/moving_variance", "shape": [64], "dtype": "float32"}, {"name": "conv2d_416/kernel", "shape": [3, 3, 64, 96], "dtype": "float32"}, {"name": "batch_normalization_416/beta", "shape": [96], "dtype": "float32"}, {"name": "batch_normalization_416/moving_mean", "shape": [96], "dtype": "float32"}, {"name": "batch_normalization_416/moving_variance", "shape": [96], "dtype": "float32"}, {"name": "conv2d_414/kernel", "shape": [3, 3, 288, 384], "dtype": "float32"}, {"name": "conv2d_417/kernel", "shape": [3, 3, 96, 96], "dtype": "float32"}, {"name": "batch_normalization_414/beta", "shape": [384], "dtype": "float32"}, {"name": "batch_normalization_414/moving_mean", "shape": [384], "dtype": "float32"}, {"name": "batch_normalization_414/moving_variance", "shape": [384], "dtype": "float32"}, {"name": "batch_normalization_417/beta", "shape": [96], "dtype": "float32"}, {"name": "batch_normalization_417/moving_mean", "shape": [96], "dtype": "float32"}, {"name": "batch_normalization_417/moving_variance", "shape": [96], "dtype": "float32"}, {"name": "conv2d_422/kernel", "shape": [1, 1, 768, 128], "dtype": "float32"}, {"name": "batch_normalization_422/beta", "shape": [128], "dtype": "float32"}, {"name": "batch_normalization_422/moving_mean", "shape": [128], "dtype": "float32"}, {"name": "batch_normalization_422/moving_variance", "shape": [128], "dtype": "float32"}, {"name": "conv2d_423/kernel", "shape": [7, 1, 128, 128], "dtype": "float32"}, {"name": "batch_normalization_423/beta", "shape": [128], "dtype": "float32"}, {"name": "batch_normalization_423/moving_mean", "shape": [128], "dtype": "float32"}, {"name": "batch_normalization_423/moving_variance", "shape": [128], "dtype": "float32"}, {"name": "conv2d_419/kernel", "shape": [1, 1, 768, 128], "dtype": "float32"}, {"name": "conv2d_424/kernel", "shape": [1, 7, 128, 128], "dtype": "float32"}, {"name": "batch_normalization_419/beta", "shape": [128], "dtype": "float32"}, {"name": "batch_normalization_419/moving_mean", "shape": [128], "dtype": "float32"}, {"name": "batch_normalization_419/moving_variance", "shape": [128], "dtype": "float32"}, {"name": "batch_normalization_424/beta", "shape": [128], "dtype": "float32"}, {"name": "batch_normalization_424/moving_mean", "shape": [128], "dtype": "float32"}, {"name": "batch_normalization_424/moving_variance", "shape": [128], "dtype": "float32"}, {"name": "conv2d_420/kernel", "shape": [1, 7, 128, 128], "dtype": "float32"}, {"name": "conv2d_425/kernel", "shape": [7, 1, 128, 128], "dtype": "float32"}, {"name": "batch_normalization_420/beta", "shape": [128], "dtype": "float32"}, {"name": "batch_normalization_420/moving_mean", "shape": [128], "dtype": "float32"}, {"name": "batch_normalization_420/moving_variance", "shape": [128], "dtype": "float32"}, {"name": "batch_normalization_425/beta", "shape": [128], "dtype": "float32"}, {"name": "batch_normalization_425/moving_mean", "shape": [128], "dtype": "float32"}, {"name": "batch_normalization_425/moving_variance", "shape": [128], "dtype": "float32"}, {"name": "conv2d_418/kernel", "shape": [1, 1, 768, 192], "dtype": "float32"}, {"name": "conv2d_421/kernel", "shape": [7, 1, 128, 192], "dtype": "float32"}, {"name": "conv2d_426/kernel", "shape": [1, 7, 128, 192], "dtype": "float32"}, {"name": "conv2d_427/kernel", "shape": [1, 1, 768, 192], "dtype": "float32"}, {"name": "batch_normalization_418/beta", "shape": [192], "dtype": "float32"}, {"name": "batch_normalization_418/moving_mean", "shape": [192], "dtype": "float32"}, {"name": "batch_normalization_418/moving_variance", "shape": [192], "dtype": "float32"}, {"name": "batch_normalization_421/beta", "shape": [192], "dtype": "float32"}, {"name": "batch_normalization_421/moving_mean", "shape": [192], "dtype": "float32"}, {"name": "batch_normalization_421/moving_variance", "shape": [192], "dtype": "float32"}, {"name": "batch_normalization_426/beta", "shape": [192], "dtype": "float32"}, {"name": "batch_normalization_426/moving_mean", "shape": [192], "dtype": "float32"}, {"name": "batch_normalization_426/moving_variance", "shape": [192], "dtype": "float32"}, {"name": "batch_normalization_427/beta", "shape": [192], "dtype": "float32"}, {"name": "batch_normalization_427/moving_mean", "shape": [192], "dtype": "float32"}, {"name": "batch_normalization_427/moving_variance", "shape": [192], "dtype": "float32"}, {"name": "conv2d_432/kernel", "shape": [1, 1, 768, 160], "dtype": "float32"}, {"name": "batch_normalization_432/beta", "shape": [160], "dtype": "float32"}, {"name": "batch_normalization_432/moving_mean", "shape": [160], "dtype": "float32"}, {"name": "batch_normalization_432/moving_variance", "shape": [160], "dtype": "float32"}, {"name": "conv2d_433/kernel", "shape": [7, 1, 160, 160], "dtype": "float32"}, {"name": "batch_normalization_433/beta", "shape": [160], "dtype": "float32"}, {"name": "batch_normalization_433/moving_mean", "shape": [160], "dtype": "float32"}, {"name": "batch_normalization_433/moving_variance", "shape": [160], "dtype": "float32"}, {"name": "conv2d_429/kernel", "shape": [1, 1, 768, 160], "dtype": "float32"}, {"name": "conv2d_434/kernel", "shape": [1, 7, 160, 160], "dtype": "float32"}, {"name": "batch_normalization_429/beta", "shape": [160], "dtype": "float32"}, {"name": "batch_normalization_429/moving_mean", "shape": [160], "dtype": "float32"}, {"name": "batch_normalization_429/moving_variance", "shape": [160], "dtype": "float32"}, {"name": "batch_normalization_434/beta", "shape": [160], "dtype": "float32"}, {"name": "batch_normalization_434/moving_mean", "shape": [160], "dtype": "float32"}, {"name": "batch_normalization_434/moving_variance", "shape": [160], "dtype": "float32"}, {"name": "conv2d_430/kernel", "shape": [1, 7, 160, 160], "dtype": "float32"}, {"name": "conv2d_435/kernel", "shape": [7, 1, 160, 160], "dtype": "float32"}, {"name": "batch_normalization_430/beta", "shape": [160], "dtype": "float32"}, {"name": "batch_normalization_430/moving_mean", "shape": [160], "dtype": "float32"}, {"name": "batch_normalization_430/moving_variance", "shape": [160], "dtype": "float32"}, {"name": "batch_normalization_435/beta", "shape": [160], "dtype": "float32"}, {"name": "batch_normalization_435/moving_mean", "shape": [160], "dtype": "float32"}, {"name": "batch_normalization_435/moving_variance", "shape": [160], "dtype": "float32"}, {"name": "conv2d_428/kernel", "shape": [1, 1, 768, 192], "dtype": "float32"}, {"name": "conv2d_431/kernel", "shape": [7, 1, 160, 192], "dtype": "float32"}, {"name": "conv2d_436/kernel", "shape": [1, 7, 160, 192], "dtype": "float32"}, {"name": "conv2d_437/kernel", "shape": [1, 1, 768, 192], "dtype": "float32"}, {"name": "batch_normalization_428/beta", "shape": [192], "dtype": "float32"}, {"name": "batch_normalization_428/moving_mean", "shape": [192], "dtype": "float32"}, {"name": "batch_normalization_428/moving_variance", "shape": [192], "dtype": "float32"}, {"name": "batch_normalization_431/beta", "shape": [192], "dtype": "float32"}, {"name": "batch_normalization_431/moving_mean", "shape": [192], "dtype": "float32"}, {"name": "batch_normalization_431/moving_variance", "shape": [192], "dtype": "float32"}, {"name": "batch_normalization_436/beta", "shape": [192], "dtype": "float32"}, {"name": "batch_normalization_436/moving_mean", "shape": [192], "dtype": "float32"}, {"name": "batch_normalization_436/moving_variance", "shape": [192], "dtype": "float32"}, {"name": "batch_normalization_437/beta", "shape": [192], "dtype": "float32"}, {"name": "batch_normalization_437/moving_mean", "shape": [192], "dtype": "float32"}, {"name": "batch_normalization_437/moving_variance", "shape": [192], "dtype": "float32"}, {"name": "conv2d_442/kernel", "shape": [1, 1, 768, 160], "dtype": "float32"}, {"name": "batch_normalization_442/beta", "shape": [160], "dtype": "float32"}, {"name": "batch_normalization_442/moving_mean", "shape": [160], "dtype": "float32"}, {"name": "batch_normalization_442/moving_variance", "shape": [160], "dtype": "float32"}, {"name": "conv2d_443/kernel", "shape": [7, 1, 160, 160], "dtype": "float32"}, {"name": "batch_normalization_443/beta", "shape": [160], "dtype": "float32"}, {"name": "batch_normalization_443/moving_mean", "shape": [160], "dtype": "float32"}, {"name": "batch_normalization_443/moving_variance", "shape": [160], "dtype": "float32"}, {"name": "conv2d_439/kernel", "shape": [1, 1, 768, 160], "dtype": "float32"}, {"name": "conv2d_444/kernel", "shape": [1, 7, 160, 160], "dtype": "float32"}, {"name": "batch_normalization_439/beta", "shape": [160], "dtype": "float32"}, {"name": "batch_normalization_439/moving_mean", "shape": [160], "dtype": "float32"}, {"name": "batch_normalization_439/moving_variance", "shape": [160], "dtype": "float32"}, {"name": "batch_normalization_444/beta", "shape": [160], "dtype": "float32"}, {"name": "batch_normalization_444/moving_mean", "shape": [160], "dtype": "float32"}, {"name": "batch_normalization_444/moving_variance", "shape": [160], "dtype": "float32"}, {"name": "conv2d_440/kernel", "shape": [1, 7, 160, 160], "dtype": "float32"}, {"name": "conv2d_445/kernel", "shape": [7, 1, 160, 160], "dtype": "float32"}, {"name": "batch_normalization_440/beta", "shape": [160], "dtype": "float32"}, {"name": "batch_normalization_440/moving_mean", "shape": [160], "dtype": "float32"}, {"name": "batch_normalization_440/moving_variance", "shape": [160], "dtype": "float32"}, {"name": "batch_normalization_445/beta", "shape": [160], "dtype": "float32"}, {"name": "batch_normalization_445/moving_mean", "shape": [160], "dtype": "float32"}, {"name": "batch_normalization_445/moving_variance", "shape": [160], "dtype": "float32"}, {"name": "conv2d_438/kernel", "shape": [1, 1, 768, 192], "dtype": "float32"}, {"name": "conv2d_441/kernel", "shape": [7, 1, 160, 192], "dtype": "float32"}, {"name": "conv2d_446/kernel", "shape": [1, 7, 160, 192], "dtype": "float32"}, {"name": "conv2d_447/kernel", "shape": [1, 1, 768, 192], "dtype": "float32"}, {"name": "batch_normalization_438/beta", "shape": [192], "dtype": "float32"}, {"name": "batch_normalization_438/moving_mean", "shape": [192], "dtype": "float32"}, {"name": "batch_normalization_438/moving_variance", "shape": [192], "dtype": "float32"}, {"name": "batch_normalization_441/beta", "shape": [192], "dtype": "float32"}, {"name": "batch_normalization_441/moving_mean", "shape": [192], "dtype": "float32"}, {"name": "batch_normalization_441/moving_variance", "shape": [192], "dtype": "float32"}, {"name": "batch_normalization_446/beta", "shape": [192], "dtype": "float32"}, {"name": "batch_normalization_446/moving_mean", "shape": [192], "dtype": "float32"}, {"name": "batch_normalization_446/moving_variance", "shape": [192], "dtype": "float32"}, {"name": "batch_normalization_447/beta", "shape": [192], "dtype": "float32"}, {"name": "batch_normalization_447/moving_mean", "shape": [192], "dtype": "float32"}, {"name": "batch_normalization_447/moving_variance", "shape": [192], "dtype": "float32"}, {"name": "conv2d_452/kernel", "shape": [1, 1, 768, 192], "dtype": "float32"}, {"name": "batch_normalization_452/beta", "shape": [192], "dtype": "float32"}, {"name": "batch_normalization_452/moving_mean", "shape": [192], "dtype": "float32"}, {"name": "batch_normalization_452/moving_variance", "shape": [192], "dtype": "float32"}, {"name": "conv2d_453/kernel", "shape": [7, 1, 192, 192], "dtype": "float32"}, {"name": "batch_normalization_453/beta", "shape": [192], "dtype": "float32"}, {"name": "batch_normalization_453/moving_mean", "shape": [192], "dtype": "float32"}, {"name": "batch_normalization_453/moving_variance", "shape": [192], "dtype": "float32"}, {"name": "conv2d_449/kernel", "shape": [1, 1, 768, 192], "dtype": "float32"}, {"name": "conv2d_454/kernel", "shape": [1, 7, 192, 192], "dtype": "float32"}, {"name": "batch_normalization_449/beta", "shape": [192], "dtype": "float32"}, {"name": "batch_normalization_449/moving_mean", "shape": [192], "dtype": "float32"}, {"name": "batch_normalization_449/moving_variance", "shape": [192], "dtype": "float32"}, {"name": "batch_normalization_454/beta", "shape": [192], "dtype": "float32"}, {"name": "batch_normalization_454/moving_mean", "shape": [192], "dtype": "float32"}, {"name": "batch_normalization_454/moving_variance", "shape": [192], "dtype": "float32"}, {"name": "conv2d_450/kernel", "shape": [1, 7, 192, 192], "dtype": "float32"}, {"name": "conv2d_455/kernel", "shape": [7, 1, 192, 192], "dtype": "float32"}, {"name": "batch_normalization_450/beta", "shape": [192], "dtype": "float32"}, {"name": "batch_normalization_450/moving_mean", "shape": [192], "dtype": "float32"}, {"name": "batch_normalization_450/moving_variance", "shape": [192], "dtype": "float32"}, {"name": "batch_normalization_455/beta", "shape": [192], "dtype": "float32"}, {"name": "batch_normalization_455/moving_mean", "shape": [192], "dtype": "float32"}, {"name": "batch_normalization_455/moving_variance", "shape": [192], "dtype": "float32"}, {"name": "conv2d_448/kernel", "shape": [1, 1, 768, 192], "dtype": "float32"}, {"name": "conv2d_451/kernel", "shape": [7, 1, 192, 192], "dtype": "float32"}, {"name": "conv2d_456/kernel", "shape": [1, 7, 192, 192], "dtype": "float32"}, {"name": "conv2d_457/kernel", "shape": [1, 1, 768, 192], "dtype": "float32"}, {"name": "batch_normalization_448/beta", "shape": [192], "dtype": "float32"}, {"name": "batch_normalization_448/moving_mean", "shape": [192], "dtype": "float32"}, {"name": "batch_normalization_448/moving_variance", "shape": [192], "dtype": "float32"}, {"name": "batch_normalization_451/beta", "shape": [192], "dtype": "float32"}, {"name": "batch_normalization_451/moving_mean", "shape": [192], "dtype": "float32"}, {"name": "batch_normalization_451/moving_variance", "shape": [192], "dtype": "float32"}, {"name": "batch_normalization_456/beta", "shape": [192], "dtype": "float32"}, {"name": "batch_normalization_456/moving_mean", "shape": [192], "dtype": "float32"}, {"name": "batch_normalization_456/moving_variance", "shape": [192], "dtype": "float32"}, {"name": "batch_normalization_457/beta", "shape": [192], "dtype": "float32"}, {"name": "batch_normalization_457/moving_mean", "shape": [192], "dtype": "float32"}, {"name": "batch_normalization_457/moving_variance", "shape": [192], "dtype": "float32"}, {"name": "conv2d_460/kernel", "shape": [1, 1, 768, 192], "dtype": "float32"}, {"name": "batch_normalization_460/beta", "shape": [192], "dtype": "float32"}, {"name": "batch_normalization_460/moving_mean", "shape": [192], "dtype": "float32"}, {"name": "batch_normalization_460/moving_variance", "shape": [192], "dtype": "float32"}, {"name": "conv2d_461/kernel", "shape": [1, 7, 192, 192], "dtype": "float32"}, {"name": "batch_normalization_461/beta", "shape": [192], "dtype": "float32"}, {"name": "batch_normalization_461/moving_mean", "shape": [192], "dtype": "float32"}, {"name": "batch_normalization_461/moving_variance", "shape": [192], "dtype": "float32"}, {"name": "conv2d_458/kernel", "shape": [1, 1, 768, 192], "dtype": "float32"}, {"name": "conv2d_462/kernel", "shape": [7, 1, 192, 192], "dtype": "float32"}, {"name": "batch_normalization_458/beta", "shape": [192], "dtype": "float32"}, {"name": "batch_normalization_458/moving_mean", "shape": [192], "dtype": "float32"}, {"name": "batch_normalization_458/moving_variance", "shape": [192], "dtype": "float32"}, {"name": "batch_normalization_462/beta", "shape": [192], "dtype": "float32"}, {"name": "batch_normalization_462/moving_mean", "shape": [192], "dtype": "float32"}, {"name": "batch_normalization_462/moving_variance", "shape": [192], "dtype": "float32"}, {"name": "conv2d_459/kernel", "shape": [3, 3, 192, 320], "dtype": "float32"}, {"name": "conv2d_463/kernel", "shape": [3, 3, 192, 192], "dtype": "float32"}, {"name": "batch_normalization_459/beta", "shape": [320], "dtype": "float32"}, {"name": "batch_normalization_459/moving_mean", "shape": [320], "dtype": "float32"}, {"name": "batch_normalization_459/moving_variance", "shape": [320], "dtype": "float32"}, {"name": "batch_normalization_463/beta", "shape": [192], "dtype": "float32"}, {"name": "batch_normalization_463/moving_mean", "shape": [192], "dtype": "float32"}, {"name": "batch_normalization_463/moving_variance", "shape": [192], "dtype": "float32"}, {"name": "conv2d_468/kernel", "shape": [1, 1, 1280, 448], "dtype": "float32"}, {"name": "batch_normalization_468/beta", "shape": [448], "dtype": "float32"}, {"name": "batch_normalization_468/moving_mean", "shape": [448], "dtype": "float32"}, {"name": "batch_normalization_468/moving_variance", "shape": [448], "dtype": "float32"}, {"name": "conv2d_465/kernel", "shape": [1, 1, 1280, 384], "dtype": "float32"}, {"name": "conv2d_469/kernel", "shape": [3, 3, 448, 384], "dtype": "float32"}, {"name": "batch_normalization_465/beta", "shape": [384], "dtype": "float32"}, {"name": "batch_normalization_465/moving_mean", "shape": [384], "dtype": "float32"}, {"name": "batch_normalization_465/moving_variance", "shape": [384], "dtype": "float32"}, {"name": "batch_normalization_469/beta", "shape": [384], "dtype": "float32"}, {"name": "batch_normalization_469/moving_mean", "shape": [384], "dtype": "float32"}, {"name": "batch_normalization_469/moving_variance", "shape": [384], "dtype": "float32"}, {"name": "conv2d_466/kernel", "shape": [1, 3, 384, 384], "dtype": "float32"}, {"name": "conv2d_467/kernel", "shape": [3, 1, 384, 384], "dtype": "float32"}, {"name": "conv2d_470/kernel", "shape": [1, 3, 384, 384], "dtype": "float32"}, {"name": "conv2d_471/kernel", "shape": [3, 1, 384, 384], "dtype": "float32"}, {"name": "conv2d_464/kernel", "shape": [1, 1, 1280, 320], "dtype": "float32"}, {"name": "batch_normalization_466/beta", "shape": [384], "dtype": "float32"}, {"name": "batch_normalization_466/moving_mean", "shape": [384], "dtype": "float32"}, {"name": "batch_normalization_466/moving_variance", "shape": [384], "dtype": "float32"}, {"name": "batch_normalization_467/beta", "shape": [384], "dtype": "float32"}, {"name": "batch_normalization_467/moving_mean", "shape": [384], "dtype": "float32"}, {"name": "batch_normalization_467/moving_variance", "shape": [384], "dtype": "float32"}, {"name": "batch_normalization_470/beta", "shape": [384], "dtype": "float32"}, {"name": "batch_normalization_470/moving_mean", "shape": [384], "dtype": "float32"}, {"name": "batch_normalization_470/moving_variance", "shape": [384], "dtype": "float32"}, {"name": "batch_normalization_471/beta", "shape": [384], "dtype": "float32"}, {"name": "batch_normalization_471/moving_mean", "shape": [384], "dtype": "float32"}, {"name": "batch_normalization_471/moving_variance", "shape": [384], "dtype": "float32"}, {"name": "conv2d_472/kernel", "shape": [1, 1, 1280, 192], "dtype": "float32"}, {"name": "batch_normalization_464/beta", "shape": [320], "dtype": "float32"}, {"name": "batch_normalization_464/moving_mean", "shape": [320], "dtype": "float32"}, {"name": "batch_normalization_464/moving_variance", "shape": [320], "dtype": "float32"}, {"name": "batch_normalization_472/beta", "shape": [192], "dtype": "float32"}, {"name": "batch_normalization_472/moving_mean", "shape": [192], "dtype": "float32"}, {"name": "batch_normalization_472/moving_variance", "shape": [192], "dtype": "float32"}, {"name": "conv2d_477/kernel", "shape": [1, 1, 2048, 448], "dtype": "float32"}, {"name": "batch_normalization_477/beta", "shape": [448], "dtype": "float32"}, {"name": "batch_normalization_477/moving_mean", "shape": [448], "dtype": "float32"}, {"name": "batch_normalization_477/moving_variance", "shape": [448], "dtype": "float32"}, {"name": "conv2d_474/kernel", "shape": [1, 1, 2048, 384], "dtype": "float32"}, {"name": "conv2d_478/kernel", "shape": [3, 3, 448, 384], "dtype": "float32"}, {"name": "batch_normalization_474/beta", "shape": [384], "dtype": "float32"}, {"name": "batch_normalization_474/moving_mean", "shape": [384], "dtype": "float32"}, {"name": "batch_normalization_474/moving_variance", "shape": [384], "dtype": "float32"}, {"name": "batch_normalization_478/beta", "shape": [384], "dtype": "float32"}, {"name": "batch_normalization_478/moving_mean", "shape": [384], "dtype": "float32"}, {"name": "batch_normalization_478/moving_variance", "shape": [384], "dtype": "float32"}, {"name": "conv2d_475/kernel", "shape": [1, 3, 384, 384], "dtype": "float32"}, {"name": "conv2d_476/kernel", "shape": [3, 1, 384, 384], "dtype": "float32"}, {"name": "conv2d_479/kernel", "shape": [1, 3, 384, 384], "dtype": "float32"}, {"name": "conv2d_480/kernel", "shape": [3, 1, 384, 384], "dtype": "float32"}, {"name": "conv2d_473/kernel", "shape": [1, 1, 2048, 320], "dtype": "float32"}, {"name": "batch_normalization_475/beta", "shape": [384], "dtype": "float32"}, {"name": "batch_normalization_475/moving_mean", "shape": [384], "dtype": "float32"}, {"name": "batch_normalization_475/moving_variance", "shape": [384], "dtype": "float32"}, {"name": "batch_normalization_476/beta", "shape": [384], "dtype": "float32"}, {"name": "batch_normalization_476/moving_mean", "shape": [384], "dtype": "float32"}, {"name": "batch_normalization_476/moving_variance", "shape": [384], "dtype": "float32"}, {"name": "batch_normalization_479/beta", "shape": [384], "dtype": "float32"}, {"name": "batch_normalization_479/moving_mean", "shape": [384], "dtype": "float32"}, {"name": "batch_normalization_479/moving_variance", "shape": [384], "dtype": "float32"}, {"name": "batch_normalization_480/beta", "shape": [384], "dtype": "float32"}, {"name": "batch_normalization_480/moving_mean", "shape": [384], "dtype": "float32"}, {"name": "batch_normalization_480/moving_variance", "shape": [384], "dtype": "float32"}, {"name": "conv2d_481/kernel", "shape": [1, 1, 2048, 192], "dtype": "float32"}, {"name": "batch_normalization_473/beta", "shape": [320], "dtype": "float32"}, {"name": "batch_normalization_473/moving_mean", "shape": [320], "dtype": "float32"}, {"name": "batch_normalization_473/moving_variance", "shape": [320], "dtype": "float32"}, {"name": "batch_normalization_481/beta", "shape": [192], "dtype": "float32"}, {"name": "batch_normalization_481/moving_mean", "shape": [192], "dtype": "float32"}, {"name": "batch_normalization_481/moving_variance", "shape": [192], "dtype": "float32"}]}]}